cifar_net.pth (torch, 483727 bytes, 12 tensors)

conv1.weight f4 [32, 3, 5, 5]
-0.22688198 0.04003157 -0.05667974 -0.1399884 -0.19359659 -0.13678916 -0.5390491 -0.64223367
0.18833525 0.116152465 -0.16491817 -0.21749045 0.6967243 0.66149616 -0.09778751 0.26614755
0.4492398 0.65836877 -0.29469723 -0.31733218 0.15970375 -0.12059957 -0.51107925 -0.4157666
0.28672194 0.31442985 0.44953468 0.07196492 0.028988924 -0.011603195 0.06720234 -0.45314825
-0.57242453 0.15872464 0.034437187 -0.04365848 0.094709024 0.70175034 0.7355824 -0.039090168
0.1205384 0.51047057 0.5974917 -0.51686627 -0.47244903 0.015064288 -0.23693748 -0.73940474
-0.54815084 0.15914178 0.03361194 0.13374107 -0.061545998 -0.14759229 0.04999216 0.044664726
-0.44735512 -0.45509022 0.18265764 0.07033495 -0.03073328 -0.033212926 0.66464436 0.57633066
-0.068793535 0.17815384 0.5295697 0.47873628 -0.38822216 -0.19616719 -0.0957117 -0.147571
-0.6809273 -0.32243314 0.37873894 0.10343842 0.022265293 0.024256399 0.0057274164 -0.15023568
0.109295 -0.13253881 -0.07906691 -0.088713914 -0.22664003 0.14108413 -0.12841244 0.1396291
-0.081784315 -0.10200073 0.24207556 -0.19128172 0.09245313 -0.058119576 -0.14694652 0.028730107
-0.059925403 -0.21133353 -0.17135166 0.028819157 -0.17005976 -0.011256071 0.12423034 0.27794284
0.14935237 -0.26377505 -0.24003252 0.1501195 0.2616404 0.16967374 -0.14899053 -0.26752716
0.094622925 0.19818826 0.3499785 -0.07443083 -0.26093453 0.13852048 0.26553312 0.27653325
0.07535477 -0.2906958 -0.14550893 0.10435055 0.10450744 -0.3337939 -0.17496943 0.10205116
0.19932696 0.29053906 -0.5040242 -0.20267904 0.008130469 0.23626631 0.40456054 -0.415518
-0.32770598 -0.0017964033 0.23902357 0.42863604 -0.2413763 -0.36092463 -0.029605497 0.25601393
0.22583726 -0.13761875 -0.3095871 0.029602818 0.2560219 0.2709538 0.49726257 0.66603833
0.37848642 -0.19285108 -0.28285733 0.5608044 0.686011 -0.12274927 -0.36736476 -0.2807823
0.51232696 0.20963547 -0.44288033 -0.15740481 -0.23429939 0.27575555 -0.26417118 -0.2976117
-0.14391454 -0.29448682 -0.11284007 -0.27497575 -0.2852819 -0.16108452 -0.28968048 0.060164317
0.0681226 -0.19160976 -0.2688627 -0.23260227 0.07201938 0.15309186 -0.36230525 -0.40281516
-0.13733886 0.28462526 -0.017724892 -0.4818702 -0.10453389 0.09204031 -0.06683394 -0.35797688
-0.37225083 0.24124958 0.20227079 -0.19629568 -0.1842936 -0.026049193 0.46807283 0.20967382
-0.1971247 -0.20561086 0.00021830825 -0.002030296 0.12664877 -0.16788593 0.011597562 -0.18235038
-0.15373829 0.23211336 -0.092288025 -0.18241791 -0.17457081 0.13984379 0.42894638 -0.18562242
-0.48446086 -0.22155806 0.44147593 0.39795107 -0.2176093 -0.26023993 0.18164393 0.45037496
0.21408069 0.14428553 -0.09223539 -0.3358868 -0.13692825 0.052547198 0.06006831 0.34433654
0.20553614 -0.1567 -0.30764624 -0.40847036 0.18142766 0.58063823 0.28063184 -0.04107066
-0.35810852 -0.46127936 -0.09471346 0.25665674 0.32985917 -0.058433253 -0.28349948 -0.2569125
-0.15795206 0.1327738 0.2397354 0.04778098 -0.25290084 0.015164054 0.048816126 0.2760383
00000000: c053 68be 25f8 233d 0429 68bd 1e59 0fbe
00000010: 2f3e 46be 7512 0cbe 1fff 09bf 6d69 24bf
00000020: f5da 403e 58e1 ed3d 4fe0 28be d1b5 5ebe
00000030: 865c 323f d057 293f d144 c8bd 7e44 883e
00000040: c202 e63e db8a 283f 8ee2 96be 5d79 a2be
00000050: 6189 233e e8fc f6bd 17d6 02bf 5cdf d4be
00000060: 38cd 923e f3fc a03e 6929 e63e 5862 933d
00000070: 2e7a ed3c 541b 3ebc 61a1 893d 0c03 e8be
00000080: 6a8a 12bf b688 223e 020e 0d3d 3cd3 32bd
00000090: cef6 c13d e9a5 333f 214f 3c3f 031d 20bd
000000a0: d6dc f63d 33ae 023f 37f5 183f 5951 04bf
000000b0: d7e4 f1be 34d0 763c bd9f 72be a149 3dbf
000000c0: 9d53 0cbf 10f6 223e acac 093d 6bf3 083e
000000d0: a817 7cbd 6f22 17be 94c4 4c3d 5cf2 363d
000000e0: bb0b e5be 9601 e9be 9b0a 3b3e c50b 903d
000000f0: 5cc4 fbbc 470a 08bd 2226 2a3f 688a 133f
00000100: a0e3 8cbd f66d 363e e191 073f ec1c f53e
00000110: 0ec5 c6be 0de0 48be 7f04 c4bd da1c 17be
00000120: 4051 2ebf f515 a5be 12ea c13e 86d7 d33d
00000130: b465 b63c 5bb5 c63c 0dad bb3b 62d7 19be
00000140: 0fd6 df3d 41b8 07be d5ed a1bd a4af b5bd
00000150: 5314 68be 5c78 103e 8d7e 03be eefa 0e3e
00000160: 897e a7bd c2e5 d0bd a8e2 773e 5bdf 43be
00000170: 1158 bd3d cb0e 6ebd 2679 16be 675b eb3c
00000180: 5774 75bd d167 58be cf76 2fbe 2716 ec3c
00000190: 2524 2ebe 626b 38bc 7a6c fe3d 864e 8e3e
000001a0: d4ef 183e 860d 87be 16cb 75be edb8 193e
000001b0: bbf5 853e f4be 2d3e f990 18be 52f9 88be
000001c0: aac9 c13d ddf1 4a3e 6230 b33e 316f 98bd
000001d0: 3699 85be 50d8 0d3e f5f3 873e c495 8d3e
000001e0: 9a53 9a3d 14d6 94be 4b00 15be beb5 d53d
000001f0: ff07 d63d 09e7 aabe 302b 33be 3300 d13d
00000200: 5e1c 4c3e 89c1 943e bb07 01bf 188b 4fbe
00000210: a935 053c ccef 713e 8f22 cf3e c6be d4be
00000220: 14c9 a7be 4b75 ebba 98c2 743e 2f76 db3e
00000230: 592b 77be 1dcb b8be 3a87 f2bc 4214 833e
00000240: e241 673e eeeb 0cbe 3382 9ebe 9c81 f23c
00000250: 4d15 833e 75ba 8a3e 3399 fe3e 7d81 2a3f
00000260: f9c8 c13e c17a 45be add2 90be e190 0f3f
00000270: 6b9e 2f3f f863 fbbd 3c17 bcbe b3c2 8fbe
00000280: dc27 033f aeaa 563e 36c1 e2be ba2e 21be
00000290: 2eec 6fbe d52f 8d3e 7241 87be 9060 98be
000002a0: 555e 13be fac6 96be b218 e7bd 9fc9 8cbe
000002b0: 7810 92be 57f3 24be 0051 94be dc6e 763d
000002c0: dd83 8b3d 5935 44be 5fa8 89be 4a2f 6ebe
000002d0: e67e 933d 1dc4 1c3e 1380 b9be ca3d cebe
000002e0: 8fa2 0cbe 67ba 913e cb33 91bc b1b7 f6be
000002f0: dd15 d6bd a17f bc3d 3ce0 88bd bf48 b7be
00000300: a997 bebe 210a 773e 1320 4f3e bc01 49be
00000310: 76b7 3cbe 1e65 d5bc 3ea7 ef3e bcb4 563e
00000320: 0fdb 49be a78b 52be ade9 6439 b70e 05bb
00000330: 37b0 013e 4aea 2bbe b303 3e3c 0fba 3abe
00000340: 926d 1dbe 20af 6d3e 8101 bdbd c3cb 3abe
00000350: b1c2 32be 3633 0f3e dc9e db3e ce13 3ebe
00000360: 410b f8be 1ee0 62be 2209 e23e 3ec0 cb3e
00000370: f9d4 5ebe 2b3e 85be de00 3a3e 8c97 e63e
00000380: f837 5b3e 96bf 133e e8e5 bcbd 5bf9 abbe
00000390: eb36 0cbe bb3b 573d 300a 763d e14c b03e
000003a0: 1178 523e f775 20be cf83 9dbe 0723 d1be
000003b0: 2cc8 393e b5a4 143f faae 8f3e b539 28bd
000003c0: 005a b7be cf2c ecbe 21f9 c1bd 8368 833e
000003d0: 4de3 a83e b557 6fbd d826 91be 098a 83be
000003e0: 2fbe 21be dbf5 073e 327d 753e fdb5 433d
000003f0: 387c 81be a772 783c 6bf3 473d e454 8d3e

conv1.bias f4 [32]
-0.50604194 -0.5584002 -1.1813972 -0.80355626 0.086132236 -0.46476546 -0.5171554 -1.0836012
-0.7812719 -0.46157008 -0.3914097 -0.45769387 0.21061155 -0.809722 -0.5093114 -0.73105747
-0.38406515 -0.3232026 -0.2098423 -0.44756764 -0.6976744 -0.5806961 -0.6415665 -0.67731863
-0.822329 -0.6631266 -0.48664847 -0.4592249 -0.48168725 -0.15717906 -0.72258997 -1.4850451
00000000: f78b 01bf 51f3 0ebf 0638 97bf ddb5 4dbf
00000010: 1966 b03d bdf5 edbe 4c64 04bf 72b3 8abf
00000020: 6f01 48bf ea52 ecbe da66 c8be da56 eabe
00000030: 8eaa 573e f149 4fbf 3b62 02bf 9526 3bbf
00000040: 30a4 c4be d07a a5be e6e0 56be 9627 e5be
00000050: ca9a 32bf 80a8 14bf b43d 24bf c164 2dbf
00000060: 2784 52bf aac2 29bf fd29 f9be 871f ebbe
00000070: b69f f6be 8cf3 20be a8fb 38bf f515 bebf

conv2.weight f4 [64, 32, 5, 5]
-0.051489837 -0.09298516 -0.036514718 -0.000634117 -0.00096003007 -0.017872341 0.042451747 -0.016051948
-0.09290225 -0.024728153 0.07556852 0.061451938 0.034479894 -0.027143512 -0.029688258 0.02984601
0.014291525 0.14514898 0.028659469 0.033773296 -0.10712163 -0.06247065 -0.02157818 -0.04529503
-0.0051932824 -0.06477252 -0.0626824 -0.15318744 0.004796022 0.14907584 -0.07929573 -0.13343565
-0.1902199 -0.027288208 0.027994864 -0.09778472 -0.088637635 0.039407115 0.15631148 -0.0036719292
-0.10085879 -0.017999869 0.09333346 0.16909082 -0.03409298 -0.051575698 0.048907727 -0.006988115
0.07695237 0.0036439279 0.027455922 0.010584322 -0.011520275 -0.056780834 -0.041644406 -0.028917475
-0.09822959 -0.068301 -0.07569117 0.016360763 -0.026393222 -0.014345166 0.0055045546 0.09431296
0.01001803 -0.032019816 0.010723102 0.06558376 0.074770294 -0.09030161 -0.060323514 -0.0020188421
-0.05639051 -0.12682845 -0.14054629 0.037947062 -0.1033994 -0.0064309384 -0.0006915978 0.057057496
0.10451334 0.06469465 0.077292465 0.04916949 0.04906332 -0.091241464 0.022630673 0.13269804
0.11885629 0.082291275 -0.01901776 -0.013645707 0.006532455 -0.033932447 -0.020236291 0.099728785
0.027783114 -0.009785831 -0.067894265 -0.023311237 0.061788198 0.007630248 0.04989381 0.017766686
-0.000534771 0.0002878873 0.03803851 0.08451825 0.031917468 0.033646125 -0.08513147 -0.0961946
0.030053034 0.025622379 0.029361391 -0.13560295 -0.097256824 -0.08177938 -0.0623061 -0.051285762
-0.1032151 -0.06026958 -0.13268645 -0.0769275 -0.053759307 0.10721579 -0.05826807 -0.0010768608
0.1102629 0.019171298 0.010603202 -0.032191183 -0.055618014 -0.16130893 -0.08790052 -0.036899447
-0.06607212 -0.07915363 -0.14837079 -0.14681628 -0.09655153 0.03935101 0.05585351 0.055440426
-0.026124414 -0.039084267 -0.08820467 0.06631769 -0.014372227 -0.11469515 -0.19525218 -0.08652347
-0.106430896 -0.0899364 -0.046139635 0.058824442 0.09047788 0.00040873163 -0.028794698 0.018207166
-0.08993112 0.024601156 -0.035108496 -0.10441452 -0.09283203 -0.041172888 0.0010051557 0.0068774438
0.10371787 0.081113115 0.053180452 -0.0060232687 -0.048471067 0.027772728 -0.11218689 -0.075870335
-0.10534519 -0.096679926 -0.09947368 -0.12367609 -0.064345255 0.02969502 0.069684915 -0.016735332
-0.06827819 -0.011857754 0.1454622 0.20858525 0.13403974 0.039672185 -0.040624503 0.07832891
0.11152702 0.006895965 -0.030498806 -0.0014331725 -0.008520683 -0.053908516 -0.075726695 -0.037107177
0.13472453 -0.012412376 -0.07852442 -0.058930133 -0.052482896 -0.054016776 -0.08936772 -0.081413254
-0.027426105 -0.014106904 -0.07984536 -0.07347591 0.005794223 -0.04446289 -0.05497046 -0.008371178
-0.06523769 0.052915342 0.083885014 -0.025815466 0.12873566 0.011469926 -0.030801678 0.035114896
-0.048687525 -0.04270712 -0.0883028 -0.112241544 -0.101307936 -0.035110615 0.020996485 0.023281133
-0.07828071 -0.08088253 -0.04433374 0.11931424 0.11727094 0.017745513 -0.068181165 -0.13238119
0.067039214 0.070747174 0.09355533 0.02784283 -0.12955062 -0.01420842 -0.010014557 0.049433272
-0.022424443 -0.059055317 -0.07255929 -0.033786662 -0.11605211 0.088523105 0.12644309 -0.16102354
00000000: 02e7 52bd 016f bebd 7590 15bd df3a 26ba
00000010: 87aa 7bba 0469 92bc e2e1 2d3d 607f 83bc
00000020: 8943 bebd b292 cabc abc3 9a3d 07b5 7b3d
00000030: ca3a 0d3d 125c debc ca34 f3bc 9f7f f43c
00000040: 0027 6a3c efa1 143e 43c7 ea3c de55 0a3d
00000050: 9662 dbbd 39e1 7fbd b9c4 b0bc 4887 39bd
00000060: 692c aabb 74a7 84bd a15f 80bd 2bdd 1cbe
00000070: f327 9d3b 56a7 183e cd65 a2bd 5ba3 08be
00000080: 01c9 42be 858b dfbc 7c55 e53c 5b43 c8bd
00000090: a687 b5bd 5b69 213d 1e10 203e c0a4 70bb
000000a0: 0e8f cebd 7674 93bc 9d25 bf3d 2526 2d3e
000000b0: 15a5 0bbd 0a41 53bd 7853 483d 8ffc e4bb
000000c0: 3499 9d3d f7ce 6e3b 3eeb e03c dd69 2d3c
000000d0: 89bf 3cbc 0593 68bd 5393 2abd 57e4 ecbc
000000e0: 982c c9bd 65e1 8bbd f903 9bbd 0207 863c
000000f0: 9936 d8bc fd07 6bbc 8d5f b43b 2727 c13d
00000100: aa22 243c 3627 03bd f3af 2f3c c750 863d
00000110: 2b21 993d 0df0 b8bd ca15 77bd 8d4e 04bb
00000120: bcf9 66bd 51df 01be 5eeb 0fbe 616e 1b3d
00000130: 11c3 d3bd 9fba d2bb 584c 35ba 1fb5 693d
00000140: 170b d63d a17e 843d 834b 9e3d f265 493d
00000150: 9ff6 483d cedc babd f663 b93c ffe1 073e
00000160: ed6a f33d 5488 a83d 22cb 9bbc 3e92 5fbc
00000170: 340e d63b c0fc 0abd 94c6 a5bc 9b3e cc3d
00000180: 6a99 e33c c054 20bc 260c 8bbd 35f7 bebc
00000190: 9f15 7d3d 2907 fa3b 745d 4c3d 718b 913c
000001a0: e02f 0cba 94ef 9639 45ce 1b3d e717 ad3d
000001b0: e4bb 023d 85d0 093d 6859 aebd ad01 c5bd
000001c0: c831 f63c 06e6 d13c 4d87 f03c 80db 0abe
000001d0: 962e c7bd f37b a7bd ae34 7fbd 0511 52bd
000001e0: 7062 d3bd 3cdd 76bd f5de 07be 2a8c 9dbd
000001f0: b832 5cbd f493 db3d 80aa 6ebd 7425 8dba
00000200: 84d1 e13d 200d 9d3c 0db9 2d3c e7da 03bd
00000210: b7cf 63bd 2b2e 25be 3005 b4bd e023 17bd
00000220: d250 87bd 4c1b a2bd 83ee 17be 0257 16be
00000230: cfbc c5bd 862e 213d a6c6 643d 8015 633d
00000240: de02 d6bc d316 20bd a6a4 b4bd 92d1 873d
00000250: 7d79 6bbc 4ae5 eabd 30f0 47be 3833 b1bd
00000260: 71f8 d9bd 9330 b8bd eafc 3cbd e6f1 703d
00000270: 774c b93d 084b d639 dce2 ebbc 3227 953c
00000280: cf2d b8bd 5d88 c93c edcd 0fbd 48d7 d5bd
00000290: b81e bebd e7a4 28bd 6ebf 833a 2e5c e13b
000002a0: 096a d43d a21e a63d bfd3 593d d75e c5bb
000002b0: 9989 46bd a283 e33c 3dc2 e5bd e861 9bbd
000002c0: 38bf d7bd 2000 c6bd dbb8 cbbd e449 fdbd
000002d0: 72c7 83bd f842 f33c f7b6 8e3d 8918 89bc
000002e0: 70d5 8bbd 0647 42bc 0bf4 143e 5f97 553e
000002f0: b741 093e 4d7f 223d e165 26bd e86a a03d
00000300: 4768 e43d 8cf7 e13b a2d8 f9bc 4ad9 bbba
00000310: 569a 0bbc 2dcf 5cbd 9916 9bbd b2fd 17bd
00000320: 3af5 093e 475d 4bbc 69d1 a0bd b960 71bd
00000330: 4ef8 56bd b240 5dbd 6c06 b7bd febb a6bd
00000340: b6ac e0bc a520 67bc f785 a3bd 8a7a 96bd
00000350: 77dd bd3b b81e 36bd b428 61bd 4427 09bc
00000360: 579b 85bd c2bd 583d e8cb ab3d f57a d3bc
00000370: 48d3 033e 5bec 3b3c cd53 fcbc a3d4 0f3d
00000380: 926c 47bd a9ed 2ebd 19d8 b4bd e5de e5bd
00000390: 897a cfbd 26d0 0fbd d200 ac3c 13b8 be3c
000003a0: a351 a0bd bda5 a5bd 4c97 35bd 065b f43d
000003b0: bf2b f03d 0a5f 913c 91a2 8bbd ef8e 07be
000003c0: db4b 893d e5e3 903d f099 bf3d a616 e43c
000003d0: eba8 04be 6fca 68bc 1914 24bc 8b7a 4a3d
000003e0: 77b3 b7bc fde3 71bd f799 94bd e263 0abd
000003f0: bbac edbd 9a4b b53d 4c7a 013e 5be3 24be

conv2.bias f4 [64]
-0.45039076 0.062653124 -0.055607103 0.12993464 -0.07386362 0.33551165 0.19837654 -0.30506074
-0.7179056 -0.09588029 -0.24404007 0.8713503 0.52549565 0.5969306 0.85707486 -0.26495034
0.27465189 -0.33525836 0.09770973 -0.5841996 -0.5257384 -0.016953962 -0.7169892 0.30568415
0.65407646 -0.24038786 0.50972635 -0.26196048 0.27035 0.38395157 0.089091465 -0.5545178
0.13108395 0.4475959 -0.13339609 -0.08621851 0.28279734 0.0005006689 0.26557747 0.29992607
-0.10594248 0.545155 0.0016513843 -0.31042168 -0.5233922 0.25169685 0.28473663 -0.20102718
0.9140258 0.06269713 0.085508056 0.0639684 0.10755102 -0.6732033 0.079150215 0.39754543
-0.9050516 0.18591814 -0.25355503 0.17445025 0.2181187 0.43262038 -0.7547864 -0.22927701
00000000: 9e99 e6be 4850 803d 46c4 63bd 960d 053e
00000010: cf45 97bd 2fc8 ab3e 3823 4b3e ec30 9cbe
00000020: a9c8 37bf e35c c4bd a4e5 79be d010 5f3f
00000030: e286 063f 72d0 183f 4269 5b3f 92a7 87be
00000040: 2c9f 8c3e fca6 abbe 0a1c c83d 1b8e 15bf
00000050: cb96 06bf 09e3 8abc 9b8c 37bf a282 9c3e
00000060: 8e71 273f 3c28 76be 6d7d 023f af1f 86be
00000070: 516b 8a3e 4d95 c43e 9675 b63d e1f4 0dbf
00000080: df3a 063e 4a2b e53e fc98 08be 5593 b0bd
00000090: d0ca 903e 523f 033a c5f9 873e e98f 993e
000000a0: 5ff8 d8bd 478f 0b3f 4373 d83a 97ef 9ebe
000000b0: 08fd 05bf 69de 803e 00c9 913e 12da 4dbe
000000c0: 98fd 693f 5a67 803d d91e af3d dd01 833d
000000d0: b643 dc3d 0d57 2cbf 8219 a23d 138b cb3e
000000e0: 76b1 67bf 5361 3e3e f7d1 81be 16a3 323e
000000f0: 825a 5f3e 6b80 dd3e ae39 41bf 98c7 6abe

conv3.weight f4 [32, 64, 5, 5]
-0.038330514 0.052250054 -0.00311799 0.043105014 0.024868125 -0.05983229 0.17448014 -0.0133682
0.07313882 0.00066894625 0.10700127 0.052806724 -0.04843047 -0.0016171695 0.08494687 0.22154997
0.07323532 -0.08254843 -0.0037375847 0.08297276 -0.0021945199 0.20778269 0.091148086 0.013550532
0.034340892 -0.1963305 -0.0647137 -0.010922963 -0.01574791 -0.17384686 -0.040166013 -0.028172148
0.0028210308 -0.050339997 -0.08901307 0.03221347 -0.017157072 -0.07302079 -0.110966034 -0.11576348
0.007414135 -0.0057116845 -0.023165487 -0.1250009 -0.123775005 0.029427242 0.015190858 0.07176188
0.040410303 0.03774076 -0.02513457 0.07283971 0.0710255 0.08238419 -0.15001637 0.04890758
-0.0725498 0.112102106 0.004662955 -0.14724219 -0.19203992 0.018842177 0.021065863 0.094371766
-0.0033517573 -0.11668318 -0.063367896 0.018628035 0.054779824 -0.055934917 -0.118775375 -0.12495446
-0.24902591 -0.14005464 -0.089308985 -0.22694321 -0.22948596 -0.23090881 -0.13170664 -0.47861275
-0.028079879 -0.08454443 -0.069139 -0.10030357 -0.20975552 0.07576089 0.039682332 0.060631473
-0.17432055 -0.09178289 0.04257253 -0.06467338 -0.047636442 -0.17850201 -0.015051105 0.065813504
0.051060684 0.010208664 -0.03864516 -0.17959613 0.0040646344 -0.04153356 0.018896617 -0.012065638
-0.055294182 -0.011626031 -0.05682717 0.101376854 0.028597048 -0.1042572 -0.009463557 0.14797196
0.059331648 -0.061956562 -0.16191745 -0.000202911 0.06717487 0.11055591 0.0044768946 0.0868406
-0.24626091 0.013973306 -0.07133843 0.07141142 -0.003508598 0.13195759 0.14780967 0.30914357
0.02093295 -0.10816132 0.05548144 0.14710347 0.06645995 -0.011769797 0.030647965 0.0092482595
0.032271523 0.13641162 -0.030735174 -0.030089468 0.15415262 0.05278861 -0.023700416 0.09768227
-0.17456396 -0.059523247 0.09815862 -0.036896843 0.104063116 -0.110803105 0.12278633 -0.013443231
0.0027506358 -0.17244402 0.026358372 0.03868275 0.040238637 -0.15774548 -0.09881945 -0.016300254
-0.017907979 -0.026386248 -0.14412953 -0.013010597 -0.023957325 -0.042332273 0.017790005 0.031653494
0.18458366 -0.04398565 -0.0497442 0.010774275 0.035597812 0.060477108 -0.078704104 -0.023331847
0.06089508 -0.13008018 0.111966625 -0.026091894 0.05975689 0.01787482 -0.045275427 -0.15305653
-0.04845311 -0.035397056 -0.024691835 0.008163985 -0.06471518 -0.060043067 -0.12079917 0.09576612
-0.099018805 -0.1560248 -0.010859743 -0.053838976 -0.059860837 -0.08329134 -0.0881437 -0.2492832
-0.0566103 0.016142834 0.043160122 -0.020521017 -0.08147166 0.064219356 0.015776932 0.05421438
0.042292267 -0.12750277 -0.049646497 0.05541591 0.20350166 0.19342652 -0.11503299 0.05157265
-0.031679694 0.097722664 0.28664976 -0.07498479 0.06733799 0.036777142 -0.044867117 0.12900442
0.12450623 -0.113406114 0.023577096 0.054118745 0.15273046 0.12722762 -0.015123618 -0.12633891
0.05456539 -0.05994916 -0.08193356 0.05438418 -0.12719166 -0.038297825 -0.18935561 -0.06542977
0.03692158 -0.053360302 0.027919136 -0.03508593 3.6072426e-05 -0.09181659 0.040023714 -0.06467664
-0.22488108 -0.11556743 -0.035105623 -0.015062782 -0.015103438 0.01771903 -0.1967927 0.055211563
00000000: 7500 1dbd 2704 563d 3157 4cbb e28e 303d
00000010: 3db8 cb3c b412 75bd ecaa 323e 4b06 5bbc
00000020: cec9 953d 395c 2f3a 7b23 db3d dd4b 583d
00000030: 075f 46bd 34f7 d3ba a0f8 ad3d ffdd 623e
00000040: 66fc 953d 270f a9bd 44f2 74bb 9fed a93d
00000050: efd1 0fbb fcc4 543e d9ab ba3d 0d03 5e3c
00000060: 09a9 0c3d dd0a 49be 9e88 84bd 3af6 32bc
00000070: c301 81bc e904 32be 1e85 24bd 47c9 e6bc
00000080: 0be1 383b 5031 4ebd 7c4c b6bd 46f2 033d
00000090: fd8c 8cbc ed8b 95bd 2942 e3bd 6715 edbd
000000a0: 46f2 f23b 1529 bbbb 8cc5 bdbc 3c00 00be
000000b0: c07d fdbd 6611 f13c 14e3 783c e4f7 923d
000000c0: 4685 253d 0e96 1a3d 04e7 cdbc fc2c 953d
000000d0: d175 913d 0bb9 a83d e49d 19be 5153 483d
000000e0: fd94 94bd ca95 e53d b4cb 983b a8c6 16be
000000f0: 1da6 44be e95a 9a3c 5192 ac3c fc45 c13d
00000100: 28a9 5bbb 97f7 eebd 07c7 81bd d299 983c
00000110: cf60 603d 031c 65bd 8140 f3bd 20e8 ffbd
00000120: a600 7fbe 7c6a 0fbe a1e7 b6bd cd63 68be
00000130: 5efe 6abe 5c73 6cbe 1bde 06be bb0c f5be
00000140: c607 e6bc a125 adbd bf98 8dbd f56b cdbd
00000150: 27ca 56be 8728 9b3d f189 223d b558 783d
00000160: 1681 32be abf8 bbbd 8960 2e3d 7a73 84bd
00000170: 6e1e 43bd 3bc9 36be e998 76bc 3bc9 863d
00000180: 0225 513d 3e42 273c 634a 1ebd 0ce8 37be
00000190: a030 853b 181f 2abd 14cd 9a3c f4ae 45bc
000001a0: 277c 62bd 1c7b 3ebc 9bc3 68bd ab9e cf3d
000001b0: 5b44 ea3c cd84 d5bd 090d 1bbc f685 173e
000001c0: be05 733d 2ac6 7dbd b0cd 25be 82c4 54b9
000001d0: fa92 893d 236b e23d eab2 923b 7cd9 b13d
000001e0: d22b 7cbe 4bf0 643c e219 92bd 2740 923d
000001f0: 82f0 65bb e41f 073e 6b5b 173e 1148 9e3e
00000200: 947b ab3c af83 ddbd 8240 633d 4ba2 163e
00000210: 271c 883d 1bd6 40bc 7111 fb3c 0386 173c
00000220: 252f 043d 7daf 0b3e 55c8 fbbc 307e f6bc
00000230: 2fda 1d3e df38 583d 6027 c2bc a40d c83d
00000240: e5c0 32be a6ce 73bd 6307 c93d 2521 17bd
00000250: 0b1f d53d bdec e2bd 6677 fb3d ff40 5cbc
00000260: 0344 343b 2a95 30be 83ed d73c ce71 1e3d
00000270: 45d1 243d 0888 21be da61 cabd 1c88 85bc
00000280: c1b3 92bc f927 d8bc b196 13be 662a 55bc
00000290: 2742 c4bc 9b64 2dbd 58bc 913c 18a7 013d
000002a0: 8003 3d3e 4c2a 34bd 93c0 4bbd 9686 303c
000002b0: 03cf 113d d8b6 773d 9e2f a1bd 6e22 bfbc
000002c0: 1f6d 793d bd33 05be c24e e53d abbe d5bc
000002d0: a4c3 743d 376e 923c ba72 39bd daba 1cbe
000002e0: c576 46bd 81fc 10bd 8846 cabc 3cc2 053c
000002f0: 6489 84bd b8ef 75bd 8e65 f7bd 0721 c43d
00000300: 5fca cabd f7c4 1fbe 10ed 31bc 4286 5cbd
00000310: a330 75bd a694 aabd af84 b4bd 1844 7fbe
00000320: 34e0 67bd fa3d 843c abc8 303d b11b a8bc
00000330: 9dda a6bd 7085 833d a03e 813c e60f 5e3d
00000340: a83a 2d3d 1690 02be 205a 4bbd cbfb 623d
00000350: bd62 503e 9a11 463e 6b96 ebbd d83d 533d
00000360: 91c2 01bd d222 c83d c2c3 923e a091 99bd
00000370: 80e8 893d a1a3 163d 95c6 37bd bc19 043e
00000380: 1ffd fe3d 7741 e8bd c124 c13c 9eab 5d3d
00000390: 6065 1c3e f547 023e 0dc9 77bc fd5e 01be
000003a0: f57f 5f3d 408d 75bd c8cc a7bd f2c1 5e3d
000003b0: 883e 02be 2ede 1cbd 70e6 41be 0b00 86bd
000003c0: 153b 173d 5590 5abd acb6 e43c 44b6 0fbd
000003d0: 794c 1738 560a bcbd e8ef 233d 3075 84bd
000003e0: 3a47 66be 9eae ecbd eaca 0fbd e3c9 76bc
000003f0: 6974 77bc 8027 913c 0784 49be 8525 623d

conv3.bias f4 [32]
0.40788543 -0.54816586 -0.1268176 0.29943505 0.14224994 -0.107455224 -0.046865366 -0.0123655405
0.09791419 -0.1358663 0.55951726 0.041097093 0.768731 0.20755856 0.40881556 0.045938037
0.03014913 -0.19946456 0.14227483 -0.05623 0.1457789 -0.039477933 -0.25709355 0.035604246
0.40944648 0.03887172 -0.29198465 0.09120525 0.0019986697 0.42138326 0.053730983 0.34547392
00000000: 5cd6 d03e 9954 0cbf 79dc 01be 8d4f 993e
00000010: f8a9 113e 7c11 dcbd e6f5 3fbd d698 4abc
00000020: 3c87 c83d 8920 0bbe 863c 0f3f 6d55 283d
00000030: 8ecb 443f 3b8a 543e 4650 d13e 8629 3c3d
00000040: 4ffb f63c 7040 4cbe 7eb0 113e 6e51 66bd
00000050: 1047 153e 9db3 21bd c4a1 83be c2d5 113d
00000060: f8a2 d13e f437 1f3d 037f 95be d1c9 ba3d
00000070: 1dfc 023b 8cbf d73e 0515 5c3d f5e1 b03e

fc1.weight f4 [120, 32]
-0.08130374 0.051667534 0.0045495583 0.17814456 -0.009657815 0.08257237 -0.34920108 0.041737158
-0.18473344 -0.23894948 0.08841828 -0.044472173 0.06477817 -0.14564925 -0.22101639 -0.07778208
0.21205671 0.10401182 -0.22984728 0.29377753 -0.1696987 0.21897583 -0.021386579 0.24808438
-0.08901809 -0.1266943 -0.2923364 0.2091875 -0.047221556 -0.062049996 -0.20382652 0.15918244
-0.12148249 -0.1629788 0.0083247265 -0.013722629 -0.26570475 -0.28935364 0.29958612 0.16716371
-0.037776522 -0.2671281 0.2006397 0.040223993 -0.002288638 -0.002163065 -0.0018176219 -0.15995356
0.010541842 -0.06372091 -0.110274434 -0.19806433 -0.12006656 0.10524571 -0.3187937 0.09559213
0.045230646 0.15432991 0.30703092 -0.014357055 -0.11206992 -0.17846704 0.35534966 -0.12536818
0.06957697 0.087142326 -0.17588164 -0.047661383 0.047405027 0.047781304 -0.035048652 -0.13069881
-0.06015416 -0.12366833 -0.19849968 -0.18306868 0.0043425933 -0.20904174 -0.03349547 0.1491297
-0.0041751172 0.01279281 -0.06280498 0.09088955 0.06096954 -0.12443144 -0.10984193 -0.04537973
-0.079724394 0.010176553 -0.063916534 0.015081775 0.062804505 -0.12098811 -0.034890316 -0.08408536
-0.019942189 0.16924964 0.038283255 0.19787386 -0.14979793 -0.3406946 0.18003717 -0.24265018
-0.1252901 0.06389501 0.082438 0.26373538 -0.051534098 0.20587072 -0.1930669 -0.054118264
-0.13256638 0.09716336 -0.101758115 -0.009598028 0.071873434 -0.25146055 -0.122910656 -0.19451211
-0.2947986 -0.15312235 0.1376169 -0.11121809 -0.18852207 -0.23929527 -0.09267623 0.18393458
-0.17804387 0.014480441 0.110403106 -0.16655679 0.18709955 0.0352936 -0.019705344 0.30612224
0.050751187 0.25221574 -0.11306659 -0.20372944 -0.09161442 -0.103367165 -0.116457544 0.11539149
-0.067386664 0.21344417 -0.087840185 -0.3116138 -0.08760749 0.36147064 0.021544496 0.11829946
0.17630802 -0.011620313 -0.09269519 -0.025911326 0.040079877 -0.21215099 0.34239215 -0.2004297
-0.16615374 0.0015586489 0.030233504 0.013255267 -0.22287029 0.30141312 -0.26499006 -0.014477156
-0.30749467 0.02170729 -0.18296231 0.08702319 -0.07644485 -0.03866744 -0.09661671 0.16819623
-0.22581564 0.10689574 -0.26939952 0.083682746 0.055962227 0.19729495 -0.10523269 -0.16031525
0.14807542 0.05625028 0.004832771 0.11375089 0.039137207 -0.21029992 -0.07857769 -0.004405182
-0.08652936 0.10011623 -0.0532926 -0.311759 0.06450536 -0.2047207 0.053511072 -0.034859184
0.2738761 -0.09550391 0.20446561 0.23056696 -0.07901343 0.16672672 -0.1295277 -0.36666662
0.3088455 0.10682805 0.06506988 -0.17775656 0.003650537 -0.25979608 0.11520048 -0.17805868
0.049641058 -0.30129272 -0.123306975 -0.045425296 -0.30792716 -0.35523304 -0.21203522 -0.054240957
-0.14501892 -0.41299826 0.26293957 0.19989964 0.13939452 -0.11271063 -0.1208431 -0.10270747
-0.10405338 -0.21010019 -0.17051515 -0.17214514 -0.009094924 0.27382255 -0.046911847 0.054173287
0.023936065 0.31961006 0.35701966 -0.2115123 -0.34995145 -0.08855125 -0.16788547 -0.04043089
-0.10386609 0.16604418 -0.058768112 -0.038099732 0.058124203 -0.264719 -0.0045358636 -0.021247419
00000000: 9382 a6bd 56a1 533d 7614 953b 876b 363e
00000010: d03b 1ebc b41b a93d 7cca b2be 95f4 2a3d
00000020: c32a 3dbe 2caf 74be a514 b53d 7428 36bd
00000030: 6baa 843d 1425 15be 1f52 62be 364c 9fbd
00000040: 6525 593e 2604 d53d 165d 6bbe 026a 963e
00000050: 7fc5 2dbe 333b 603e e832 afbc d509 7e3e
00000060: 1e4f b6bd 27bc 01be 1ead 95be 3f35 563e
00000070: 646b 41bd 2328 7ebd e6b7 50be b900 233e
00000080: d0cb f8bd eae3 26be 6f64 083c e1d4 60bc
00000090: 740a 88be 2926 94be 5a63 993e f72c 2b3e
000000a0: 8ebb 1abd 04c5 88be 7e74 4d3e eac1 243d
000000b0: f9fc 15bb 35c2 0dbb 453d eeba deca 23be
000000c0: b1b7 2c3c 1c80 82bd 90d7 e1bd 60d1 4abe
000000d0: 75e5 f5bd 108b d73d ee38 a3be cfc5 c33d
000000e0: c543 393d a908 1e3e 2833 9d3e da39 6bbc
000000f0: ea84 e5bd 10c0 36be 64f0 b53e 8460 00be
00000100: 5f7e 8e3d ad77 b23d 511a 34be 9538 43bd
00000110: c62b 423d 54b6 433d 2d8f 0fbd e9d5 05be
00000120: 3564 76bd d245 fdbd 8043 4bbe 5b76 3bbe
00000130: 504c 8e3b 0a0f 56be 8c32 09bd 75b5 183e
00000140: 6ccf 88bb ef98 513c e69f 80bd 4d24 ba3d
00000150: 32bb 793d e9d5 febd cef4 e0bd 19e0 39bd
00000160: 8b46 a3bd 8fbb 263c ace6 82bd 8d19 773c
00000170: a69f 803d 9dc8 f7bd 26e9 0ebd f234 acbd
00000180: cd5d a3bc c74f 2d3e e7ce 1c3d 729f 4a3e
00000190: a164 19be 866f aebe aa5b 383e 4a79 78be
000001a0: 0c4c 00be 63db 823d 41d5 a83d 5308 873e
000001b0: 6b15 53bd c6cf 523e 54b3 45be 1dab 5dbd
000001c0: 7bbf 07be 95fd c63d 8f66 d0bd 0c41 1dbc
000001d0: 6132 933d 70bf 80be 95b8 fbbd 2f2e 47be
000001e0: d8ef 96be 1bcc 1cbe 72eb 0c3e 4fc6 e3bd
000001f0: ee0b 41be d209 75be 09cd bdbd 5959 3c3e
00000200: 2251 36be 5f3f 6d3c 061b e23d dd8d 2abe
00000210: 0697 3f3e 0690 103d 1a6d a1bc 0ebc 9c3e
00000220: 7ae0 4f3d 6c22 813e 758f e7bd 739e 50be
00000230: 57a0 bbbd 2ab2 d3bd 4b81 eebd 6052 ec3d
00000240: 0502 8abd 1c91 5a3e 8ee5 b3bd d88b 9fbe
00000250: 8e6b b3bd ae12 b93e 157e b03c fd46 f23d
00000260: 178a 343e 2063 3ebc fad6 bdbd fd43 d4bc
00000270: cc2a 243d 1c3e 59be 064e af3e 713d 4dbe
00000280: 3524 2abe 944b cc3a 41ac f73c 9f2c 593c
00000290: 1c38 64be d252 9a3e c7ac 87be 9831 6dbc
000002a0: f16f 9dbe 7dd3 b13c 795a 3bbe 3739 b23d
000002b0: 1e8f 9cbd c061 1ebd fbde c5bd a23b 2c3e
000002c0: 373c 67be 27ec da3d bcee 89be dc61 ab3d
000002d0: a638 653d b007 4a3e 3d84 d7bd ae29 24be
000002e0: 15a1 173e b266 663d 395c 9e3b 3af6 e83d
000002f0: 564e 203d dd58 57be 57ed a0bd 5859 90bb
00000300: 4e36 b1bd bd09 cd3d 5749 5abd e09e 9fbe
00000310: 631b 843d 4ea2 51be 6d2e 5b3d 81c8 0ebd
00000320: 7d39 8c3e 8e97 c3bd 6f5f 513e bf19 6c3e
00000330: cbd1 a1bd 69ba 2a3e e9a2 04be babb bbbe
00000340: ff20 9e3e aac8 da3d 5b43 853d d105 36be
00000350: d93d 6f3b fe03 85be 3bee eb3d 0455 36be
00000360: 6c54 4b3d 0a43 9abe 5e88 fcbd e00f 3abd
00000370: a1a8 9dbe 1be1 b5be c31f 59be c42b 5ebd
00000380: d77f 14be 8274 d3be 04a0 863e 7eb2 4c3e
00000390: 70bd 0e3e d5d4 e6bd 967c f7bd 4b58 d2bd
000003a0: f019 d5bd 8124 57be 869b 2ebe d146 30be
000003b0: e002 15bc 7832 8c3e a326 40bd cfe4 5d3d
000003c0: 9115 c43c eea3 a33e 48cb b63e ae96 58be
000003d0: d62c b3be 5c5a b5bd 2bea 2bbe dc9a 25bd
000003e0: bfb7 d4bd 7c07 2a3e d5b6 70bd 770e 1cbd
000003f0: a513 6e3d 4089 87be 95a1 94bb 110f aebc

fc1.bias f4 [120]
0.3964926 0.088052176 0.077402554 -0.19633773 -0.14883785 -0.24910986 -0.20119277 -0.10925703
-0.08898206 0.35180616 -0.32884637 -0.020989763 0.12729235 -0.14789356 0.36868027 -0.40996742
-0.18895313 0.27528432 -0.14797473 -0.075219356 0.26571426 0.29372123 0.111723594 -0.1730152
-0.10006102 0.13890398 0.5786308 -0.0774398 -0.17273 -0.17919096 -0.12145792 -0.108600155
-0.15204163 -0.18232626 0.13068628 0.186872 -0.12157779 0.31836912 0.074573554 0.21463811
-0.05675511 0.36590543 0.17859852 -0.18643066 0.13690989 0.257492 0.33809263 -0.3112848
0.05401438 -0.029896757 0.022096187 -0.058156516 0.1408827 0.5548096 -0.12068481 0.2782353
0.17854898 0.11062474 0.47811365 0.3058417 0.08500961 0.110382505 0.3589088 0.09406723
0.1212117 0.2929993 -0.22489874 -0.13449728 0.19794658 -0.18254252 -0.2907624 0.06565367
-0.36330017 0.20136875 0.0947603 0.32499692 -0.17214847 -0.20996517 -0.044180814 0.12573814
0.031269446 -0.09652425 -0.098396584 0.17316438 0.36324278 0.15573642 -0.007166791 0.29903167
-0.102267645 0.12076775 -0.21430789 0.24187674 -0.13924414 0.1738719 -0.21660334 0.0037037218
-0.21159764 -0.0038694593 -0.061795235 -0.06506376 0.2826651 0.18036321 0.6833482 0.0395547
0.041907474 -0.07696547 -0.23450707 0.053843435 0.053857226 -0.06291426 0.1245408 -0.26619008
0.43646473 -0.019221472 -0.08181007 0.15697381 0.53328997 -0.08474839 -0.12821288 0.26955947
00000000: 1401 cb3e b354 b43d 3b85 9e3d c20c 49be
00000010: f368 18be a816 7fbe 7a05 4ebe 26c2 dfbd
00000020: 3a3c b6bd f01f b43e 8d5e a8be b9f2 abbc
00000030: ed58 023e 6971 17be a9c3 bc3e 40e7 d1be
00000040: ee7c 41be 11f2 8c3e b086 17be 9b0c 9abd
00000050: b30b 883e a162 963e 57cf e43d e62a 31be
00000060: cbec ccbd d83c 0e3e 2621 143f c298 9ebd
00000070: 22e0 30be d67d 37be eebe f8bd c269 debd
00000080: cdb0 1bbe bcb3 3abe a0d2 053e 605b 3f3e
00000090: c7fd f8bd 4701 a33e 05ba 983d 18ca 5b3e
000000a0: 0c78 68bd f557 bb3e 88e2 363e aee7 3ebe
000000b0: 1b32 0c3e fed5 833e 7a1a ad3e b960 9fbe
000000c0: 2f3e 5d3d 0bea f4bc 1003 b53c 8735 6ebd
000000d0: 8e43 103e 0008 0e3f 9929 f7bd db74 8e3e
000000e0: 8bd5 363e 398f e23d 50cb f43e 4997 9c3e
000000f0: 8519 ae3d 3910 e23d e5c2 b73e 52a6 c03d
00000100: d73d f83d 0104 963e db4b 66be a8b9 09be
00000110: 82b2 4a3e 6dec 3abe cfde 94be 6e75 863d
00000120: 7b02 babe 9c33 4e3e b011 c23d ff65 a63e
00000130: b047 30be 1c01 57be f1f6 34bd 80c1 003e
00000140: 6414 003d 82ae c5bd 2684 c9bd 0152 313e
00000150: f5fa b93e 5e79 1f3e 66d7 eabb ae1a 993e
00000160: b371 d1bd 1555 f73d 8773 5bbe 89ae 773e
00000170: 0496 0ebe 7a0b 323e 44cd 5dbe 24ba 723b
00000180: 0dad 58be c196 7dbb 001d 7dbd 2640 85bd
00000190: 7bb9 903e 22b1 383e e8ef 2e3f 1c04 223d
000001a0: 2ca7 2b3d 13a0 9dbd 9f22 70be ef8a 5c3d
000001b0: 6599 5c3d 31d9 80bd 3f0f ff3d 114a 88be
000001c0: 4e78 df3e 5976 9dbc 0a8c a7bd bebd 203e
000001d0: b185 083f 9090 adbd 3d4a 03be b303 8a3e

fc2.weight f4 [84, 120]
-0.025234303 0.13176218 0.08749444 -0.01624083 0.044990964 0.07020579 -0.083019964 -0.056944627
0.039587494 -0.02501575 0.008445371 0.01830497 0.023709504 -0.06905142 -0.1033114 -0.07268342
0.015368476 -0.02859334 0.0025341918 0.033475604 0.07720525 0.06588717 0.05661607 0.019375881
-0.15353264 -0.017221186 -0.0018198472 -0.10162407 -0.0074049924 -0.17381792 0.029885672 -0.18523815
0.03240598 -0.10064914 0.07695272 -0.059044078 0.02487206 -0.12349585 -0.007891918 -0.056930106
0.08245262 -0.11534815 -0.19650379 0.04917159 0.07997077 0.054207556 -0.096086465 -0.2036309
-0.06497197 0.014292066 0.026010957 -0.06564455 -0.118228436 -0.08050205 0.024025219 -0.00460992
-0.12273622 0.0909493 -0.18097813 0.036208395 0.07312245 -0.034084823 0.1658596 0.08771257
-0.106896214 -0.19937247 -0.04808974 -0.058637623 0.09894323 -0.04457268 -0.023852896 0.08371871
-0.07983224 -0.13605197 -0.0045788293 0.13321184 0.016682975 -0.062935054 0.027557002 -0.19467375
-0.124819264 0.13174112 -0.030113006 -0.0017394418 0.1048575 0.09914103 0.11982592 -0.025948547
0.06867901 0.11403688 0.034489043 0.14614208 -0.09362331 -0.088903174 0.09904163 -0.04621993
-0.007918817 0.0382048 -0.11625215 -0.06490043 0.004870296 0.09400869 0.011558899 -0.111421555
-0.007134815 -0.06302926 -0.12273618 -0.097665854 0.0858766 0.048043486 0.10277277 0.016790746
-0.030636491 -0.0032279475 -0.032718867 -0.12475289 -0.01890422 -0.09864808 -0.004191513 0.16978526
0.042333867 0.037376307 -0.06567225 -0.25731695 -0.17694 -0.13904276 -0.15402667 -0.214007
-0.07837107 0.032851953 -0.09769887 0.043579955 -0.0080939075 -0.028263912 -0.071537234 -0.1667329
-0.010991927 0.06882445 -0.062495552 -0.13725416 0.06287013 0.108542606 0.046617247 -0.12390853
-0.14900157 -0.060120363 0.034554727 -0.098621145 0.028473195 -0.1359096 -0.028507845 -0.11979643
-0.05900044 -0.15433627 0.011833439 0.020907708 -0.051169515 0.0004577548 -0.04872182 0.005150383
0.060539406 0.12667413 -0.02479086 0.021172065 -0.14557606 0.08603668 0.14261183 -0.17927343
-0.09453301 0.07817248 0.052828237 0.10082778 -0.047301173 0.07330447 0.019464903 0.025057664
-0.07796867 0.04161146 0.1562933 0.05192816 -0.03010959 -0.15677738 -0.035298653 0.03698634
-0.10168559 -0.008622239 -0.28664666 -0.013262178 0.024071977 0.07958092 -0.16716595 0.06613957
-0.2385402 -0.08238048 0.06922677 0.17176832 -0.018134486 -0.13727453 0.015029262 0.112774506
-0.07972214 -0.018541738 -0.045834947 -0.06607999 0.052972335 -0.021108452 -0.1943869 0.0689207
0.059363622 -0.005078818 -0.04046929 0.04601314 -0.04391605 -0.01043774 -0.049375333 0.007811683
-0.16201347 -0.069016434 -0.0912132 -0.06207757 -0.14309703 0.017177759 0.11873381 0.028682597
-0.05146018 -0.066403225 0.028450748 -0.04994405 -0.124483466 -0.069690526 0.15755993 -0.03129405
0.12027102 -0.10066332 -0.07040089 0.091432266 -0.0022469303 0.03766049 0.0015465402 -0.11448116
0.10654449 0.027504008 -0.038788363 -0.054838337 0.0073777204 0.047205944 -0.09114293 -0.02791461
0.13223478 -0.046973433 -0.05976131 0.11743096 -0.056747045 -0.003801262 0.027999327 -0.08878914
00000000: 2bb8 cebc aaec 063e 4930 b33d 7d0b 85bc
00000010: 7248 383d 0ec8 8f3d 5f06 aabd c53e 69bd
00000020: 7f26 223d d5ed ccbc 745e 0a3c 4ef4 953c
00000030: 6f3a c23c d56a 8dbd ed94 d3bd 0bdb 94bd
00000040: 0fcc 7b3c 953c eabc af14 263b b71d 093d
00000050: c91d 9e3d daef 863d 41e6 673d 2bba 9e3c
00000060: a937 1dbe 7213 8dbc f087 eeba 4820 d0bd
00000070: 94a5 f2bb 53fd 31be ccd2 f43c 12af 3dbe
00000080: 22bc 043d 2321 cebd 6399 9d3d 34d8 71bd
00000090: 7ec0 cb3c 64eb fcbd 1a4d 01bc 8b2f 69bd
000000a0: ebdc a83d a73b ecbd 4a38 49be 2668 493d
000000b0: b7c7 a33d be08 5e3d fbc8 c4bd 9e84 50be
000000c0: 0610 85bd 4529 6a3c ee14 d53c a670 86bd
000000d0: c021 f2bd 42de a4bd 89d0 c43c d00e 97bb
000000e0: 215d fbbd a043 ba3d 5552 39be 414f 143d
000000f0: 39c1 953d 879c 0bbd 19d7 293e a6a2 b33d
00000100: 67ec dabd 4c28 4cbe bff9 44bd 012e 70bd
00000110: c0a2 ca3d d891 36bd 2667 c3bc b774 ab3d
00000120: 167f a3bd 3551 0bbe 010a 96bb af68 083e
00000130: bcaa 883c 18e4 80bd 39bf e13c 8e58 47be
00000140: 3ea1 ffbd 25e7 063e 8daf f6bc fbfd e3ba
00000150: 87bf d63d 740a cb3d 4b67 f53d 0c92 d4bc
00000160: 95a7 8c3d 2b8c e93d 6244 0d3d 45a6 153e
00000170: 94bd bfbd de12 b6bd 57d6 ca3d 1c51 3dbd
00000180: edbd 01bc a37c 1c3d 9b15 eebd 84ea 84bd
00000190: 0197 9f3b a187 c03d 8961 3d3c fc30 e4bd
000001a0: 2bcb e9bb 7c15 81bd 1b5d fbbd 0905 c8bd
000001b0: 12e0 af3d 3fc9 443d 887a d23d bf8c 893c
000001c0: 61f9 fabc f98b 53bb 3804 06bd 717e ffbd
000001d0: 06dd 9abc 0108 cabd f658 89bb 30dc 2d3e
000001e0: 4766 2d3d e617 193d 2c7f 86bd 0cbf 83be
000001f0: c22f 35be 3a61 0ebe 2bb9 1dbe a724 5bbe
00000200: 0381 a0bd c58f 063d 5816 c8bd e580 323d
00000210: 4f9c 04bc b889 e7bc 1d82 92bd 08bc 2abe
00000220: 7c17 34bc d5f3 8c3d 56fb 7fbd 5b8c 0cbe
00000230: 0ec2 803d 964b de3d baf1 3e3d c1c3 fdbd
00000240: de93 18be c540 76bd 4289 0d3d e2f9 c9bd
00000250: 9e40 e93c e32b 0bbe 4989 e9bc d557 f5bd
00000260: 72aa 71bd 540a 1ebe 0ae1 413c a446 ab3c
00000270: 2097 51bd cffe ef39 8890 47bd 8bc4 a83b
00000280: 2bf8 773d ddb6 013e 3416 cbbc 0a71 ad3c
00000290: e411 15be 0034 b03d d608 123e 7493 37be
000002a0: 869a c1bd e518 a03d 6c62 583d cc7e ce3d
000002b0: e0be 41bd a720 963d dc74 9f3c bb45 cd3c
000002c0: 0aae 9fbd c770 2a3d 5a0b 203e 9fb2 543d
000002d0: 63a8 f6bc 408a 20be 5295 10bd fd7e 173d
000002e0: 8940 d0bd 4b44 0dbc 5ac3 92be 9b49 59bc
000002f0: 9832 c53c 52fb a23d 8d2d 2bbe 2f74 873d
00000300: e243 74be 19b7 a8bd c4c6 8d3d 09e4 2f3e
00000310: c68e 94bc b291 0cbe 4b3d 763c 52f6 e63d
00000320: 5d45 a3bd d8e4 97bc 6dbd 3bbd f254 87bd
00000330: 85f9 583d a2eb acbc 5c0d 47be 4c26 8d3d
00000340: 4527 733d 376c a6bb 20c3 25bd 4678 3c3d
00000350: 51e1 33bd 0e03 2bbc ca3d 4abd 26f9 ff3b
00000360: dce6 25be 7d58 8dbd fccd babd 0d45 7ebd
00000370: 0788 12be 5fb8 8c3c b62a f33d c4f7 ea3c
00000380: e9c7 52bd 6afe 87bd 8b11 e93c 2292 4cbd
00000390: 30f1 febd e8b9 8ebd 6457 213e 312e 00bd
000003a0: a750 f63d 9228 cebd 582e 90bd d740 bb3d
000003b0: 3c41 13bb e341 1a3d 47b5 ca3a 1975 eabd
000003c0: ff33 da3d 1650 e13c 8ce0 1ebd 2a9e 60bd
000003d0: cec0 f13b 055b 413d 25a9 babd 2ead e4bc
000003e0: 8e68 073e 3767 40bd 47c8 74bd a57f f03d
000003f0: 976f 68bd 981e 79bb d85e e53c 15d7 b5bd

fc2.bias f4 [84]
0.30392718 0.6904504 0.16792771 0.04108936 0.19406962 0.1392893 -0.055752676 0.23690382
-0.13269876 0.25811192 0.08317137 0.1833868 0.45009807 0.26330972 0.28347373 0.102470934
-0.067735046 0.14598048 0.14267401 0.108665444 -0.053619783 0.13138187 0.33249542 0.018372176
0.27962387 -0.005831912 -0.09875331 0.06720248 0.13201728 0.13909669 0.0850838 0.30256665
0.37002686 0.19429553 0.03277562 0.27004677 0.13603735 0.16846293 0.13429095 -0.015420472
-0.050285574 0.5732968 -0.0902618 -0.060233384 0.109667726 0.2989427 0.25326717 0.27837002
0.124082826 0.2402064 0.09513217 0.22032318 0.14920805 0.31636062 0.22062922 0.39471924
0.33498892 0.15273201 -0.0048228176 0.12652901 -0.11539346 -0.10754872 -0.0013388529 0.22098508
0.17885306 0.046253253 0.34833413 0.19227885 0.2104169 -0.011738197 -0.11810911 -0.17715794
-0.01875176 0.029584687 0.5944107 0.29819596 0.17168328 0.4063394 -0.22961454 0.0046408214
0.39573833 -0.020191634 0.28680447 0.46567196
00000000: 589c 9b3e 5bc1 303f 3ef5 2b3e 514d 283d
00000010: 30ba 463e dba1 0e3e eb5c 64bd ea96 723e
00000020: 2fe2 07be 3f27 843e c055 aa3d c0c9 3b3e
00000030: 4173 e63e 88d0 863e 7823 913e 48dc d13d
00000040: acb8 8abd e87b 153e 2319 123e fd8b de3d
00000050: 6ba0 5bbd f888 063e d73c aa3e 3f81 963c
00000060: dc2a 8f3e a019 bfbb 2d3f cabd 74a1 893d
00000070: 8a2f 073e 5d6f 0e3e 6a40 ae3d 04ea 9a3e
00000080: 2974 bd3e 68f5 463e bb3f 063d 9243 8a3e
00000090: 604d 0b3e 8c81 2c3e 9183 093e 26a6 7cbc
000000a0: 3ff8 4dbd 94c3 123f 2edb b8bd 48b7 76bd
000000b0: 7999 e03d 040f 993e 3cac 813e 8486 8e3e
000000c0: 231f fe3d abf8 753e a8d4 c23d 669c 613e
000000d0: ffc9 183e 05fa a13e a0ec 613e a418 ca3e
000000e0: ab83 ab3e c865 1c3e ba08 9ebb d290 013e
000000f0: 6853 ecbd 8142 dcbd 737c afba ea49 623e
00000100: 4225 373e 0d74 3d3d da58 b23e bfe4 443e
00000110: 8777 573e 9151 40bc 30e3 f1bd e468 35be
00000120: 4a9d 99bc 965b f23c 4d2b 183f 24ad 983e
00000130: becd 2f3e b80b d03e 1320 6bbe 0812 983b
00000140: 379e ca3e ed68 a5bc 09d8 923e 8e6c ee3e

fc3.weight f4 [10, 84]
-0.110777244 -0.48119515 0.2333033 0.085197136 0.08151186 0.04424711 -0.0824507 -0.21609995
0.1671807 -0.26636344 0.15482543 -0.13476601 -0.08150169 -0.06736287 0.13049671 0.10635441
-0.11915985 0.06705413 0.22012258 -0.025552297 0.15478584 0.12652151 -0.10133788 -0.013803802
0.3099794 0.04409324 -0.004371037 0.19635735 0.15413244 -0.36485633 -0.22121292 -0.15548025
0.088542506 0.0045468616 0.14724323 0.0899302 0.06295759 -0.33767188 -0.17674154 0.25042593
0.115962915 -0.4729525 0.02345269 0.19205002 0.18465477 0.030634202 0.0035804536 0.20547226
0.09420575 0.1991179 -0.0033691744 -0.011428704 0.05701033 -0.25770798 0.134644 0.111101404
-0.08125 -0.21892881 0.10413918 -0.06682226 -0.06650137 -0.011368853 -0.055433117 0.21130121
0.08217221 0.114338845 0.32820934 0.26864675 0.05681398 -0.035397828 0.14761706 -0.019613918
0.13247117 -0.114437744 -0.013560269 -0.010541652 -0.2399261 -0.30649817 -0.16182703 -0.04936575
-0.08486731 0.25527564 -0.22794609 0.19778964 -0.14198452 -0.17852956 -0.1176716 -0.34305945
-0.2598509 -0.14561659 0.07546277 0.24045864 0.16588636 0.13621247 -0.007042928 0.04401737
-0.26914534 -0.30147648 -0.43009338 0.09160902 -0.071021736 -0.03369257 0.43559775 0.11589248
-0.096351594 -0.056510728 -0.1405897 0.05107783 -0.3313334 0.17670266 -0.091951475 0.036865868
-0.014485189 0.25724038 -0.21639554 -0.033655778 -0.021234263 -0.07178371 0.13676578 0.13177644
-0.35800683 0.22361517 0.19492704 0.032661352 0.017800946 -0.47335634 0.23285863 -0.053048227
0.16480759 -0.19891241 -0.07569169 0.23161246 -0.08872904 0.2425518 -0.028937086 -0.20147781
0.013529255 0.001198934 0.22038315 -0.066041134 -0.25907835 -0.033356648 0.102086484 0.048372235
0.06295446 -0.045206185 0.07962707 -0.12254984 0.15458477 0.288706 -0.1670953 0.35937527
-0.13845345 0.04323423 0.19644359 0.098613 0.19609824 0.006494208 -0.30114427 0.13687757
-0.20277542 -0.16445404 0.2226467 0.11898191 0.07950565 0.20286559 -0.012367322 -0.18743795
0.23188831 0.09256565 0.16030021 0.2797559 0.22274333 0.047795422 -0.07996462 -0.023821907
0.071105696 -0.01250412 -0.04696441 0.092375085 0.19979903 -0.16151574 -0.0002433035 -0.052140713
0.08881853 -0.15060243 0.058549892 0.11174342 0.14370799 0.07421226 -0.0070768506 0.042502597
0.28403392 0.051092025 -0.07134146 0.049225025 0.16361523 0.15850125 0.2348003 -0.17402706
-0.3397657 -0.057286054 0.05058905 -0.1544326 0.15828934 0.034812365 -0.035847254 0.15395868
-0.056948055 0.23933712 0.03679745 0.15948614 0.06195995 0.29186103 0.11475068 0.059383772
-0.112498395 -0.14719947 0.033801273 -0.09430361 -0.029160837 0.14423162 -0.0021971932 -0.13025418
0.019376552 0.06874789 -0.009938243 0.058044825 -0.028608821 0.116159946 -0.060289707 0.0296043
-0.43395674 -0.2343958 0.18391322 -0.18423331 -0.12044173 -0.005999495 0.14001809 0.290072
-0.07424433 0.11787869 0.37134516 -0.009156607 0.07368011 0.14489324 -0.06958697 0.11818511
0.19423987 0.103781946 0.20428637 0.23174661 0.18667938 0.35892802 0.16990966 -0.056654375
00000000: 2edf e2bd 365f f6be 0fe7 6e3e d67b ae3d
00000010: b1ef a63d 753c 353d eadb a8bd 4e49 5dbe
00000020: 6b31 2b3e ca60 88be 8f8a 1e3e 1a00 0abe
00000030: 5cea a6bd 8bf5 89bd eea0 053e 57d0 d93d
00000040: 140a f4bd ad53 893d d067 613e 0d53 d1bc
00000050: 2e80 1e3e db8e 013e 3c8a cfbd 5829 62bc
00000060: 9fb5 9e3e 1d9b 343d ea3a 8fbb e711 493e
00000070: e5d4 1d3e 73ce babe a485 62be 3736 1fbe
00000080: c655 b53d d7fd 943b eec6 163e 532d b83d
00000090: e9ef 803d 54e3 acbe bcfb 34be d437 803e
000000a0: f77d ed3d d526 f2be db1f c03c c3a8 443e
000000b0: 2416 3d3e 94f4 fa3c 0ba6 6a3b 5267 523e
000000c0: f2ee c03d 90e5 4b3e 5ecd 5cbb 753f 3bbc
000000d0: aa83 693d 4df2 83be 1ee0 093e 2289 e33d
000000e0: 6666 a6bd e02e 60be ec46 d53d 1cda 88bd
000000f0: df31 88bd 6d44 3abc d60d 63bd 585f 583e
00000100: e749 a83d 7c2a ea3d 0e0b a83e 118c 893e
00000110: c7b5 683d 50fd 10bd ed28 173e 5ead a0bc
00000120: 86a6 073e 565e eabd e42b 5ebc e5b6 2cbc
00000130: 30af 75be 54ed 9cbe fcb5 25be be33 4abd
00000140: eace adbd 7db3 823e b36a 69be 5e89 4a3e
00000150: 6464 11be 74d0 36be cffd f0bd 7da5 afbe
00000160: 2d0b 85be 841c 15be 3a8c 9a3d ca3a 763e
00000170: 1dde 293e 487b 0b3e 5dc8 e6bb 8f4b 343d
00000180: 6bcd 89be 205b 9abe 3335 dcbe 839d bb3d
00000190: d873 91bd 3801 0abd ab06 df3e 0959 ed3d
000001a0: fc53 c5bd cb77 67bd bff6 0fbe fd36 513d
000001b0: 88a4 a9be 8bf1 343e 0e51 bcbd aa00 173d
000001c0: 4953 6dbc 03b5 833e cb96 5dbe a4da 09bd
000001d0: 7af3 adbc 5603 93bd 540c 0c3e 67f0 063e
000001e0: ac4c b7be 60fb 643e f49a 473e e9c7 053d
000001f0: 4ad3 913c c35b f2be 7e72 6e3e 1949 59bd
00000200: 52c3 283e b2af 4bbe 3f04 9bbd d12b 6d3e
00000210: 92b7 b5bd 805f 783e 780d edbc 3350 4ebe
00000220: cfa9 5d3c 8d25 9d3a 1fac 613e 9340 87bd
00000230: eba5 84be fba0 08bd b812 d13d f721 463d
00000240: 45ee 803d 1f2a 39bd 8413 a33d 69fb fabd
00000250: 784b 1e3e 46d1 933e 081b 2bbe 0900 b83e
00000260: bec6 0dbe 6016 313d 8228 493e 9df5 c93d
00000270: facd 483e 5dcd d43b 952f 9abe a229 0c3e
00000280: 5ca4 4fbe a466 28be 7ffd 633e caac f33d
00000290: dcd3 a23d ffbb 4f3e 4fa0 4abc bcef 3fbe
000002a0: 2174 6d3e 0f93 bd3d bd25 243e 2a3c 8f3e
000002b0: d416 643e 22c5 433d 7ec4 a3bd 2926 c3bc
000002c0: dd9f 913d 15de 4cbc c15d 40bd 262f bd3d
000002d0: 1e98 4c3e 6264 25be 491f 7fb9 8091 55bd
000002e0: 7de6 b53d 8637 1abe 03d2 6f3d bcd9 e43d
000002f0: 3028 133e 99fc 973d ede4 e7bb 3417 2e3d
00000300: e56c 913e df45 513d 791b 92bd 2ea0 493d
00000310: c08a 273e 274e 223e 7d6f 703e 2634 32be
00000320: c5f5 adbe c8a4 6abd 7736 4f3d 9423 1ebe
00000330: 9a16 223e 6997 0e3d 92d4 12bd 58a7 1d3e
00000340: 5d42 69bd ca14 753e ecb8 163d 5650 233e
00000350: b7c9 7d3d cf6e 953e 6802 eb3d 663c 733d
00000360: 8f65 e6bd 75bb 16be 3473 0a3d 4022 c1bd
00000370: b5e2 eebc 74b1 133e c9fe 0fbb 5a61 05be
00000380: 93bb 9e3c b2cb 8c3d 03d4 22bc 69c0 6d3d
00000390: 0c5d eabc 44e5 ed3d 57f2 76bd b884 f23c
000003a0: 942f debe 7405 70be bf53 3c3e a8a7 3cbe
000003b0: 27aa f6bd 6997 c4bb e760 0f3e 5184 943e
000003c0: 690d 98bd 626a f13d f420 be3e 9805 16bc
000003d0: 99e5 963d e55e 143e 9d83 8ebd 090b f23d
000003e0: d1e6 463e a18b d43d 7230 513e fc4e 6d3e
000003f0: e128 3f3e 6ac5 b73e ccfc 2d3e 6b0e 68bd

fc3.bias f4 [10]
-0.010239788 -0.835227 -0.19799285 0.7470921 0.6545368 0.06825437 0.11073093 -0.14532109
-0.20626779 -0.26341733
00000000: c9c4 27bc 70d1 55bf a3be 4abe 6e41 3f3f
00000010: b98f 273f f2c8 8b3d e6c6 e23d 0dcf 14be
00000020: dd37 53be a3de 86be
