models/cifar_net.pth (torch, 278799 bytes, 12 tensors)

conv1.weight f4 [32, 3, 5, 5]
0	0xbe2b56fd	-0.16732402
1	0xbe3fdafc	-0.1873588
2	0x3d364189	0.044496093
3	0x3e92a5a3	0.28641996
4	0x3e443f6e	0.19164822
5	0x3db4b012	0.08822645
6	0x3d1f61cd	0.03891163
7	0x3db4ec68	0.088341534
8	0x3e9488f8	0.2901075
9	0x3e509dde	0.20372722
10	0x3d514b36	0.051097117
11	0x3e11ec96	0.14250407
12	0x3d8bdef3	0.068296336
13	0x3e7b3494	0.24531776
14	0x3e930acc	0.28719175
15	0xbc1c6dd2	-0.009547668
16	0xbd039ed8	-0.032133907
17	0x3e28b2ab	0.16474406
18	0x3e952a20	0.291337
19	0x3e237e96	0.15966257
20	0x3e323e5b	0.17406599
21	0x3e61f88b	0.22067468
22	0x3e4f2fe7	0.20233117
23	0x3de464e1	0.111520536
24	0xbd9e6b7b	-0.07735344
25	0x3db88553	0.090098046
26	0xbd649faf	-0.05581635
27	0xbdd6abcb	-0.10481986
28	0xbd3a7d2d	-0.045529533
29	0xbde78720	-0.1130507
30	0x3c01df2c	0.0079267435
31	0xbd16130b	-0.036639255
32	0xbe8c5aa8	-0.27412915
33	0xbe3f5ce1	-0.18687774
34	0xbde5836f	-0.112067096
35	0xbc9a36e9	-0.018825011
36	0xbde1dfe7	-0.11029034
37	0xbda9895c	-0.08278152
38	0x3c930700	0.017947674
39	0xbe0a04de	-0.13478419
40	0xbe001df0	-0.1251142
41	0xbe8643c6	-0.26223582
42	0xbdb2c3d9	-0.08728761
43	0xbcc0934f	-0.023507742
44	0xbe19be8e	-0.15014097
45	0x3e4e90a1	0.20172359
46	0x3c8f62a2	0.017503086
47	0x3d9fc9ce	0.07802163
48	0xbdde6a51	-0.10860122
49	0xbe07d84b	-0.13266103
50	0xbd9e6b57	-0.07735317
51	0xbdb33c0e	-0.08751689
52	0xbd40268f	-0.046911772
53	0xbda84c0e	-0.08217631
54	0x3e3849b0	0.1799686
55	0xbb5e26d3	-0.0033897653
56	0xbe0243fd	-0.12721248
57	0xbe2452c8	-0.16047204
58	0xbd81110f	-0.06302082
59	0x3cfb697e	0.030689951
60	0xbdfd81eb	-0.123782955
61	0xbd9e9d37	-0.0774483
62	0x3d7bf28d	0.06151061
63	0x3e84be16	0.25926274
64	0x3e81142e	0.25210708
65	0xbe1371c8	-0.14398873
66	0xbe25a198	-0.16174924
67	0x3e5e8cbd	0.21733375
68	0x3e9cd9dc	0.30634964
69	0x3e3c03c7	0.18360816
70	0x3d370ab5	0.044687945
71	0x3d8c0c41	0.06838275
72	0x3ea61824	0.32440293
73	0x3e4d72b8	0.20063293
74	0x3d84bed2	0.064817086
75	0xbe974f89	-0.29552868
76	0xbe11ebc4	-0.14250094
77	0xbf0e3287	-0.5554585
78	0x3cde1c69	0.027113156
79	0xbd43f2a4	-0.047838822
80	0xbe8246f0	-0.25444746
81	0xbdfbe427	-0.12299376
82	0xbeef70a7	-0.46765634
83	0x3e28da56	0.16489539
84	0xbe446a3d	-0.19181152
85	0xbd701786	-0.058616184
86	0x3de92ead	0.11385856
87	0xba931d71	-0.0011223984
88	0x3e9fff69	0.3124955
89	0xbda0ac5a	-0.078453735
90	0xbe7e1bde	-0.24815318
91	0x3d5aaee9	0.053389464
92	0xbe2a1863	-0.16610865
93	0x3e7c3a2f	0.2463157
94	0x3e2e555a	0.17024747
95	0xbe05bbe6	-0.13059959
96	0x3e23d010	0.15997338
97	0x3e4f4417	0.20240818
98	0x3efc64cf	0.4929566
99	0x3e74c8b2	0.23904684
100	0x3d19a95c	0.03751503
101	0x3e684723	0.22683387
102	0xbe2b7645	-0.16744335
103	0x3eac8839	0.3369768
104	0xbde24e76	-0.110501215
105	0xbe3a8f37	-0.18218695
106	0x3e6f3433	0.23359756
107	0xbe2966d7	-0.16543137
108	0x3ec52b61	0.38509658
109	0xbd865fc1	-0.06561232
110	0x3c81d629	0.01584919
111	0x3e882653	0.2659174
112	0xbe263b84	-0.16233641
113	0x3e64dbce	0.22349474
114	0xbe82ba66	-0.25532836
115	0xbea2cf06	-0.3179857
116	0xbe3b20e7	-0.1827427
117	0xbef8f32d	-0.48623028
118	0x3dab18a0	0.08354306
119	0xbe2e0209	-0.16992964
120	0xbe08d1cd	-0.13361283
121	0x3e8e300c	0.27771032
122	0xbd603043	-0.054733526
123	0x3ed03ed3	0.4067293
124	0x3cd9240b	0.026506444
125	0x3e1631dc	0.14667457
126	0x3ee04274	0.438007
127	0x3d23951c	0.039937124
128	0x3eb71e39	0.35765246
129	0xbd8b7381	-0.0680914
130	0xbdc74f23	-0.09731891
131	0x3ed1e09c	0.40991676
132	0xbe042fbf	-0.12908839
133	0x3e8d1f0d	0.27562752
134	0xbda5d48c	-0.08097181
135	0xba5fb74c	-0.0008534088
136	0x3ee34f24	0.44396317
137	0xbdf450ff	-0.11929511
138	0x3dbc0548	0.09180695
139	0xbe9faa05	-0.31184402
140	0xbe580bd2	-0.21098259
141	0xbdb61594	-0.088908345
142	0xbef985bd	-0.48734847
143	0xbe4883b2	-0.19581488
144	0xbecfc810	-0.40582323
145	0xbd04f87d	-0.03246354
146	0x3e96a82d	0.29425183
147	0xbd9b912b	-0.07596048
148	0x3e3ad120	0.18243837
149	0xba3c2cf3	-0.0007178329
150	0xbea20e48	-0.3165152
151	0xbe92fdf3	-0.28709373
152	0xbee4ee3f	-0.44713017
153	0xbedfa762	-0.4368239
154	0xbed08a9b	-0.40730748
155	0xbb20be2d	-0.0024527416
156	0xbdfc5f9c	-0.123229235
157	0xbe6a46b6	-0.22878537
158	0xbdc284cb	-0.094979845
159	0xbe3f699d	-0.18692632
160	0x3e1bce42	0.152154
161	0x3e81dd69	0.25364235
162	0x3d5f36f8	0.05449578
163	0x3d604b2d	0.054759193
164	0x3c3b3946	0.011427229
165	0x3e22041e	0.15821883
166	0x3d3b1e94	0.04568346
167	0xbdcfe774	-0.10151568
168	0xbcd2a122	-0.0257116
169	0x3dae9517	0.085245304
170	0x3ead2931	0.3382049
171	0x3ec4d33e	0.38442415
172	0x3eb96e94	0.36217177
173	0x3e867d24	0.2626735
174	0x3ec95f09	0.3933032
175	0xbe7820cb	-0.2423126
176	0xbd3bb61d	-0.045827974
177	0xbe5690cf	-0.20953678
178	0xbd1696cf	-0.036764916
179	0xbe2f4c16	-0.17118868
180	0xbd6c3676	-0.057669125
181	0xbc8bcdbf	-0.01706588
182	0xbe1c7484	-0.15278822
183	0xbd66bd10	-0.056332648
184	0x3d48e51c	0.04904662
185	0x3e76baa6	0.24094638
186	0x3ea6928b	0.32533678
187	0x3e1526d2	0.1456559
188	0x3c962786	0.018329393
189	0x3d0dbf72	0.034606405
190	0xbd171083	-0.03688098
191	0x3de8d58a	0.11368854
192	0x3c1561ee	0.009117587
193	0x3d02cba8	0.031932503
194	0xbd89e300	-0.0673275
195	0x3c1d6782	0.009607198
196	0x3e84f031	0.25964502
197	0x3e2b0fda	0.16705266
198	0x3e221ce9	0.15831341
199	0x3e644c62	0.22294763
200	0xbcedc99a	-0.029026795
201	0xbc9c48e1	-0.01907772
202	0xbcff7fe8	-0.03118892
203	0xbba9a885	-0.00517756
204	0xbbd53d67	-0.006507564
205	0xbe197cc2	-0.14988998
206	0xbc89c47e	-0.016817328
207	0xbe27b034	-0.1637581
208	0xbd91a39a	-0.07111283
209	0xbe73d019	-0.23809852
210	0x3c351a0c	0.011053573
211	0x3db207a0	0.086928606
212	0x3d89bafc	0.067251176
213	0xbe0959e1	-0.13413192
214	0xbd67db78	-0.056605786
215	0xbe02f3b5	-0.1278828
216	0xbc2d8c3b	-0.010592516
217	0xbe341f85	-0.17590149
218	0xbd0835e3	-0.033254515
219	0xbab1363b	-0.001352019
220	0x3e005f47	0.12536345
221	0x3e0a9177	0.13532053
222	0x3e635537	0.22200476
223	0x3de3f560	0.11130786
224	0x3de34702	0.11097528
225	0x3e6a371e	0.22872588
226	0xb9a87a08	-0.00032134377
227	0xbf099885	-0.5374835
228	0xbe8a0d27	-0.2696316
229	0x3d6ad8a9	0.05733553
230	0x3e5e3b1e	0.21702239
231	0x3f65a534	0.89705205
232	0x3e92293f	0.28547093
233	0xbf4257b7	-0.7591509
234	0xbe94bb0e	-0.2904896
235	0xbf32f57d	-0.69905835
236	0xbcc85f3e	-0.024459478
237	0x3fb8a68c	1.4425826
238	0x3ebfbb6b	0.37447676
239	0xbe85d4a2	-0.26138788
240	0xbd9b2165	-0.07574729
241	0xbf9874fc	-1.1910701
242	0xbea6bb7f	-0.32564923
243	0x3f05e615	0.523042
244	0x3eb98a89	0.36238506
245	0x3e6d82fb	0.23194496
246	0x3e73728d	0.23774166
247	0xbec9c952	-0.39411408
248	0xbe3c73a1	-0.18403484
249	0x3d4afbb8	0.049556464
250	0xbd88964c	-0.06669292
251	0x3d6f8acc	0.058481976
252	0xbeb53039	-0.35388353
253	0xbdb87b75	-0.090079226
254	0x3ebe8c6f	0.37216517
255	0xbdfc73d2	-0.123267785

conv1.bias f4 [32]
0	0xbebf8295	-0.37404314
1	0xbe9df27b	-0.3084906
2	0xbf1bc273	-0.6084358
3	0xbf0c1ce9	-0.54731613
4	0xbeb315f2	-0.3497768
5	0xbf06b983	-0.5262682
6	0xbfb0c979	-1.3811485
7	0xbf27c02a	-0.65527594
8	0xbeee3631	-0.4652572
9	0xbf32d97b	-0.698631
10	0x3e53ef1a	0.20696679
11	0xbf02d80e	-0.51110923
12	0xbec5d62d	-0.38639966
13	0xbfbe2d1f	-1.485752
14	0xbf0371b0	-0.5134535
15	0xbedf7f22	-0.43651682
16	0xbf310cfc	-0.6916044
17	0xbf9be781	-1.2180024
18	0xbf04eda7	-0.5192513
19	0xbf703c04	-0.93841577
20	0xbeb09464	-0.34488213
21	0xbf07d4f3	-0.5305931
22	0xbf943a89	-1.1580364
23	0xbf47bb6a	-0.78020346
24	0xbf2af869	-0.66785294
25	0xbf4ebadd	-0.8075388
26	0xbf6c85f5	-0.923919
27	0xbf06b952	-0.52626526
28	0xbf0c7a3b	-0.5487401
29	0xbf57883e	-0.84192264
30	0xbf8edcc4	-1.1161122
31	0xbf314c1f	-0.69256777

conv2.weight f4 [32, 32, 5, 5]
0	0xbe12f3f5	-0.14350875
1	0x3e1a63bf	0.15077113
2	0x3e68846b	0.22706763
3	0xbd8980ed	-0.06714044
4	0xbe4f8ca2	-0.20268491
5	0xbe321339	-0.17390145
6	0x3dc01933	0.09379806
7	0x3d309fa9	0.043121014
8	0xbe2d0025	-0.16894586
9	0xbe83ee37	-0.2576768
10	0xbe28c97a	-0.16483107
11	0xbd37d7c6	-0.044883512
12	0xbd275da0	-0.040860772
13	0xbddb3171	-0.107027896
14	0xbe62e1f1	-0.22156502
15	0xbcf1e82a	-0.02952965
16	0xbd7b1e3d	-0.061308134
17	0x3b960ff0	0.0045795366
18	0x3d8906f6	0.06690781
19	0xbd9a3909	-0.0753041
20	0x3a44ccc5	0.00075073197
21	0xbe013e2a	-0.1262137
22	0xbd77f121	-0.060532693
23	0x3dfe64bd	0.12421558
24	0xbd991e05	-0.07476429
25	0x3da148a3	0.078751825
26	0x3d25873a	0.040412165
27	0x3d792a7f	0.060831543
28	0xbd3d61a7	-0.046235707
29	0xbd16d889	-0.036827598
30	0x3d48fcbe	0.04906916
31	0xbd1f1661	-0.0388397
32	0xbca0222e	-0.019547548
33	0xbb5d8d60	-0.003380619
34	0x3cbad423	0.022806233
35	0x3e1424e0	0.14467192
36	0x3d796141	0.060883764
37	0xbc712050	-0.014717177
38	0xbba298d9	-0.0049620685
39	0xbd1ad84f	-0.037803944
40	0x3d8766b0	0.06611383
41	0x3b8e12b6	0.0043357266
42	0xbcd9e107	-0.02659656
43	0xbdd4637b	-0.10370537
44	0x3c7a8c0e	0.015292181
45	0x3d86d288	0.065831244
46	0xbc503872	-0.01270877
47	0xbdc3520e	-0.09537135
48	0xbdbc6126	-0.09198217
49	0xbd4ef477	-0.05052611
50	0x3cca983e	0.024730798
51	0x3deee1a9	0.11664135
52	0x3e43c04a	0.19116321
53	0x3e700dc0	0.23442745
54	0x3d6ddc42	0.058071382
55	0x3d35f089	0.044418845
56	0xbd77f02e	-0.060531788
57	0xbd209883	-0.039207947
58	0x3cdc20b6	0.026871067
59	0x3d57135c	0.052508697
60	0x3c6effad	0.014587325
61	0xbe88558a	-0.2662776
62	0xbe504385	-0.20338257
63	0xbcb83af6	-0.022489052
64	0x3e324844	0.1741038
65	0x3c4f3c86	0.012648707
66	0xbdb76b4b	-0.089560114
67	0xbe6f56ba	-0.23372927
68	0xbd04f81d	-0.03246318
69	0x3de152be	0.1100211
70	0xbb685ed7	-0.003545692
71	0xbdb921ef	-0.090396754
72	0xbdd91508	-0.105997145
73	0xbdbd88f8	-0.0925464
74	0xbdab0472	-0.08350457
75	0x3d9edd2f	0.07757031
76	0x3d9d46f5	0.076795496
77	0xbac68eec	-0.0015148795
78	0xbda94add	-0.08266232
79	0xbd1b8198	-0.037965387
80	0xbdd69279	-0.10477156
81	0x3c324673	0.010881054
82	0xbbf53c0f	-0.007483966
83	0xbd29283f	-0.041298147
84	0x3e373346	0.17890653
85	0xbc8c542e	-0.017129984
86	0xbe2e07fa	-0.1699523
87	0xbe49031d	-0.19630094
88	0x3d99f7d3	0.07517972
89	0x3c05768d	0.0081459405
90	0xbe9118cf	-0.2833924
91	0xbea43390	-0.3207059
92	0xbea9c94c	-0.3316139
93	0xbe03817c	-0.12842363
94	0xbe88e646	-0.26738185
95	0x3dfed23a	0.12442441
96	0xbdec46a0	-0.11536908
97	0xbd3f499d	-0.046701062
98	0x3e5bdc44	0.21470743
99	0x3e183511	0.14863993
100	0xbd8e192d	-0.06938396
101	0xbcbcf02c	-0.023063742
102	0x3d9f9964	0.07792929
103	0x3b01b32e	0.0019790637
104	0x3ce16abb	0.027516713
105	0xbd2f3444	-0.042774454
106	0x3b97d8b7	0.0046339887
107	0xbc6b5b48	-0.014365025
108	0xbc5ce9ba	-0.013483459
109	0xbc6b3665	-0.01435623
110	0xbd88cce4	-0.06679705
111	0xbdc655cf	-0.096843354
112	0xbd149a5a	-0.036280014
113	0xbdd655d1	-0.10465587
114	0xbd85e859	-0.065384574
115	0xbde3a569	-0.11115534
116	0xbe1fa44c	-0.15590018
117	0xbd8173f5	-0.06320945
118	0xbe254c3b	-0.16142361
119	0xbe391746	-0.18075284
120	0x3c388643	0.011262479
121	0xbc1bd69a	-0.009511614
122	0xbc221afe	-0.009894131
123	0x3c98dbe5	0.018659541
124	0xbd489556	-0.048970543
125	0x3c1a5727	0.009420193
126	0x3cd111e8	0.025521234
127	0xbc08e3af	-0.008355065
128	0x3d856709	0.06513793
129	0x3e546ecf	0.20745395
130	0x3d83b6d2	0.064313546
131	0xbd9f0b06	-0.077657744
132	0x3c2e72b7	0.010647467
133	0xbd14f0e6	-0.03636255
134	0x3cab79de	0.020932134
135	0xbde27868	-0.11058122
136	0xbdba01f4	-0.09082404
137	0xbe802988	-0.25031686
138	0xbe848eb7	-0.25890133
139	0xbe452d71	-0.19255616
140	0x3d52dc0a	0.051479377
141	0xbdc3e9af	-0.09566056
142	0xbe71b014	-0.23602325
143	0xbe358fda	-0.17730656
144	0xbe8e86c3	-0.2783719
145	0xbcd3eae0	-0.025868833
146	0x3d1d0ddd	0.0383433
147	0xbc428549	-0.011872598
148	0xbd1e4dcd	-0.038648415
149	0x3c58315d	0.013195363
150	0x3d69ccfa	0.057080247
151	0x3dfd2d2a	0.1236213
152	0xbcbdca65	-0.023167798
153	0xbb0e2553	-0.0021689727
154	0x3dd24e9a	0.10268898
155	0xbd040033	-0.032226752
156	0xbd6138f2	-0.054985948
157	0x3ab5d1d7	0.0013871741
158	0xbd727494	-0.05919321
159	0x3dacc15c	0.08435318
160	0x3c1a5df8	0.009421818
161	0xbdeae283	-0.11468985
162	0xbd25b0d3	-0.040451836
163	0xbd39ee6b	-0.04539339
164	0xbc7150cf	-0.014728739
165	0x3cce38ac	0.025173508
166	0xbdaeccdd	-0.08535168
167	0xbd81fc3e	-0.063469395
168	0xba02300f	-0.0004966268
169	0x3bd7173b	0.0065640486
170	0x3d2c09d9	0.04200158
171	0xbe388e41	-0.18023016
172	0xbe179bf1	-0.1480558
173	0xbd6ba6b0	-0.057532012
174	0xbc41d06d	-0.011829478
175	0xbd824174	-0.063601404
176	0xbe88d0b7	-0.26721737
177	0xbd17bc50	-0.037044823
178	0xbcbd0215	-0.023072282
179	0xbdfb0b08	-0.122579634
180	0x3dcb5332	0.099279776
181	0xbeb6277a	-0.35576993
182	0xbe8f78b0	-0.28021765
183	0x3dac672f	0.08418118
184	0x3dbee1d7	0.09320419
185	0x3e010230	0.1259849
186	0xbe43d5fc	-0.19124597
187	0xbe5c4339	-0.21510018
188	0x3e491445	0.19636638
189	0x3e5f357c	0.21797746
190	0xbd9ae889	-0.07563884
191	0xbe2b7090	-0.16742158
192	0xbe4e2e9d	-0.20134969
193	0x3e40cc3d	0.1882791
194	0x3e881752	0.26580292
195	0xbdfb255f	-0.12262987
196	0xbda4307b	-0.080170594
197	0xbd96a65d	-0.0735595
198	0xbcfa301f	-0.030540524
199	0x3e4e88e2	0.20169404
200	0x3e07a58f	0.1324675
201	0xbbb7a3f7	-0.005604263
202	0xbd0c199e	-0.034204118
203	0x3dca9960	0.09892535
204	0x3dd8c47f	0.10584354
205	0x3de9653c	0.11396262
206	0x3dc6e34a	0.09711321
207	0x3e41013c	0.18848127
208	0x3e99b2ce	0.3001923
209	0x3e6477ea	0.22311369
210	0x3d7499c8	0.05971697
211	0x3d83ae27	0.06429701
212	0x3d8abf4c	0.06774768
213	0x3dd97298	0.1061756
214	0x3e1775b6	0.14790997
215	0x3d4c97f2	0.049949594
216	0xbdcae467	-0.099068455
217	0xbe265a1a	-0.16245309
218	0xbe1e119b	-0.15436403
219	0x3d8369ef	0.064166896
220	0xbd7f47bc	-0.06232427
221	0xbe25a9a6	-0.16177997
222	0xbe44e64c	-0.19228476
223	0xbe67ab58	-0.22623956
224	0xbe1ee58b	-0.15517251
225	0xbda44779	-0.08021445
226	0xbdf74f29	-0.120756455
227	0xbe064eed	-0.13116045
228	0x3d4646ca	0.048407353
229	0x3c527df9	0.012847417
230	0xbd41de96	-0.047331415
231	0xbd583a90	-0.052790225
232	0xbdc74b93	-0.097312115
233	0x3d0840d6	0.033264957
234	0xbd6525a8	-0.055944115
235	0x3e116f17	0.14202534
236	0xbd51acb8	-0.051190108
237	0xbbff7cd8	-0.007796865
238	0x3de3a5d3	0.11115613
239	0xbd06ae8b	-0.0328813
240	0x3e54c9c0	0.20780087
241	0x3cdcdf46	0.026961934
242	0x3da04dd7	0.07827347
243	0x3c9ed44c	0.01938834
244	0xbd824fb6	-0.0636286
245	0x3d7abeb6	0.061217032
246	0x3ddfe7f9	0.10932917
247	0x3d925be6	0.071464345
248	0xbdce22a1	-0.10065199
249	0x3d7af8cb	0.061272424
250	0x3c056e14	0.00814392
251	0xbddd662e	-0.10810505
252	0xbd758334	-0.05993958
253	0x3cd56b01	0.026052
254	0x3e01372b	0.12618701
255	0xbcbbdda7	-0.02293284

conv2.bias f4 [32]
0	0x3c5f73b1	0.013638423
1	0xbf646892	-0.8922206
2	0xbf5e32b0	-0.86796093
3	0xbd0c3be5	-0.034236807
4	0x3ec54bfa	0.38534528
5	0xbe9a6c3c	-0.301607
6	0x3eb9665f	0.36210915
7	0xbf22a019	-0.6352554
8	0xbe69ccf6	-0.22832093
9	0x3ea8cad7	0.32967255
10	0x3eb50046	0.3535177
11	0x3edb12a4	0.4278766
12	0x3f092923	0.53578395
13	0x3ef9e935	0.48810735
14	0x3bb0216e	0.005375079
15	0x3f97b8d0	1.1853275
16	0xbf3ab656	-0.7293447
17	0x3eda6252	0.42653137
18	0xbea4358a	-0.32072097
19	0xbf5405df	-0.8282146
20	0x3efafea7	0.4902241
21	0x3fbc3227	1.4702805
22	0x3fc33a7f	1.5252227
23	0xbefd5ddb	-0.4948567
24	0x3e1f2403	0.15541081
25	0x3f646efd	0.89231855
26	0x3ea92455	0.33035532
27	0x3f8965d3	1.0734199
28	0xbf145cec	-0.5795429
29	0xbed60406	-0.41799945
30	0x3d6fd0da	0.058548786
31	0x3f430eed	0.7619465

conv3.weight f4 [32, 32, 5, 5]
0	0x3e8a6748	0.27031922
1	0xbd72741a	-0.059192754
2	0x3cfe87c3	0.031070596
3	0x3e258590	0.16164231
4	0x3cc7bfb5	0.024383405
5	0x3d0da0a4	0.034577027
6	0xbd07f0e1	-0.033188704
7	0xbccdc785	-0.025119552
8	0x3da5ca7f	0.08095264
9	0x3c8055f7	0.015665991
10	0x3d8277bc	0.06370494
11	0x3d8068a8	0.062699616
12	0xbc403300	-0.011730909
13	0x3dffad6d	0.1248425
14	0x3e16228d	0.14661618
15	0x3d0e2029	0.03469864
16	0xbe03f3cc	-0.1288597
17	0x3bae4493	0.0053182333
18	0xbe0c5211	-0.13703181
19	0x3e0977f1	0.1342466
20	0x3b740b93	0.0037238344
21	0xbe08420e	-0.13306448
22	0xbdac6f63	-0.08419683
23	0xbdec4c81	-0.115380295
24	0x3d94dc56	0.07268588
25	0x3d983dd2	0.07433666
26	0x3dc0051a	0.09375973
27	0x3e4c7f58	0.19970453
28	0x3e40c286	0.18824205
29	0xbd8c9c17	-0.06865709
30	0x3bec115b	0.0072042174
31	0xbc91f0e8	-0.017815068
32	0x3de2d752	0.11076225
33	0xbc80314c	-0.015648507
34	0x3da3f210	0.08005154
35	0x3d000702	0.031256683
36	0xbd14d892	-0.03633935
37	0xbe4cf3e5	-0.20014913
38	0xbd869029	-0.06570465
39	0xbcd8286c	-0.026386462
40	0xbbaf28c7	-0.005345437
41	0x3dfefabc	0.124501675
42	0xbeafc4e9	-0.34329918
43	0xbd489987	-0.04897454
44	0xbcb0d55d	-0.021586115
45	0xbc87c3b6	-0.016572814
46	0xbe51c4cb	-0.20485227
47	0xbdbaf5d1	-0.09128917
48	0x3bab177e	0.0052213063
49	0x3d1d99e5	0.038476843
50	0xbe266f4b	-0.16253392
51	0x3d0f5d85	0.035001297
52	0xbdaaf668	-0.083477795
53	0x3cdfe648	0.027331486
54	0xbe231a23	-0.15927939
55	0xbe268b6f	-0.16264127
56	0xbe02c607	-0.12770854
57	0xbe239649	-0.15975298
58	0xbe2ce0c5	-0.16882618
59	0xbda8ce7a	-0.08242507
60	0x3cbe0365	0.023194978
61	0xbd9dd1b7	-0.077060156
62	0x3e074fe8	0.13214076
63	0xbe49fe00	-0.197258
64	0xbddfecf5	-0.10933868
65	0x3d8a25e1	0.06745506
66	0xbd0d0e05	-0.0344372
67	0xbe662d72	-0.22478274
68	0xbc99143e	-0.01868641
69	0x3d863946	0.06553893
70	0xbd4ce4ff	-0.050023075
71	0x3e49eca8	0.19719183
72	0xbe49d80c	-0.19711322
73	0xbb0a266d	-0.0021080032
74	0x3d29e95f	0.041482326
75	0x3e9a7140	0.30164528
76	0x3d80509a	0.062653735
77	0x3bdf5571	0.0068156053
78	0x3e7f4b47	0.2493106
79	0x3e3bbd49	0.18333925
80	0x3dfb7e16	0.12279908
81	0xbd5e1580	-0.054219723
82	0xbd352b51	-0.044230763
83	0x3dbce52e	0.092234
84	0x3cd3e43a	0.025865663
85	0x3db4c11d	0.08825896
86	0xbc18d4a2	-0.009328039
87	0x3dcfd6c0	0.10148382
88	0xbdda1195	-0.10647885
89	0xbd707f23	-0.058714997
90	0x3dfca392	0.12335886
91	0x3e14df72	0.14538363
92	0xbdd3177f	-0.10307216
93	0xbe17a76e	-0.14809963
94	0xbe2c0632	-0.16799238
95	0x3e531280	0.20612526
96	0xbc5d908d	-0.013523233
97	0xbdc5489c	-0.0963299
98	0xbe187710	-0.14889169
99	0xbe8345f7	-0.25639316
100	0x3b67f244	0.0035392204
101	0xbe3f0774	-0.18655187
102	0xbe25456e	-0.16139767
103	0xbc8aaaa7	-0.016927077
104	0x3dec908c	0.11551008
105	0xbdbe5471	-0.0929345
106	0xbe1df37e	-0.15424916
107	0xbd84405c	-0.06457588
108	0x3d168032	0.03674335
109	0xbd2beb66	-0.04197254
110	0x3d9d270d	0.07673464
111	0x3d2ffcc7	0.042965677
112	0x3d12f37d	0.03587674
113	0x3bd4cda3	0.0064942404
114	0x3da9eda7	0.08297282
115	0x3cbdfe9d	0.023192698
116	0x3d78d3f6	0.060749017
117	0x3bff9e60	0.007800862
118	0x3d6737ee	0.056449823
119	0xbda6f6e1	-0.08152557
120	0x3d95248c	0.072823614
121	0xbd5819ba	-0.05275891
122	0xbdf33962	-0.11876179
123	0x3d1aa470	0.037754476
124	0xbd944524	-0.0723975
125	0xbd99e75e	-0.07514833
126	0xbc9cb25f	-0.019128023
127	0x3e426da6	0.1898714
128	0x3d97afa0	0.07406545
129	0x3d0ce7dd	0.03440081
130	0xbd7aec80	-0.0612607
131	0xbdb6161f	-0.08890938
132	0xbccb97db	-0.024852684
133	0xbdbbfd89	-0.09179217
134	0x3df2d736	0.118574545
135	0x3d14e19d	0.036347974
136	0xbe523114	-0.20526534
137	0xbd6e4c08	-0.058177978
138	0x3da4c7cf	0.08045923
139	0xbde30042	-0.110840335
140	0xbcd1a6a6	-0.02559216
141	0xbdbe1b1a	-0.09282513
142	0xbe330f3d	-0.17486282
143	0xbdc4c5e4	-0.09608057
144	0xbdef9202	-0.11697771
145	0xbae63abf	-0.0017565115
146	0x3d8dc408	0.069221556
147	0xbc78d801	-0.015188218
148	0xbe4ca177	-0.19983469
149	0xbe0c253f	-0.13686083
150	0xbcd0a370	-0.025468558
151	0x3c991f7d	0.018691773
152	0xbcd3e74e	-0.02586713
153	0x3dcbac9c	0.09945032
154	0xbd132f36	-0.035933696
155	0x3d3f926f	0.04677051
156	0x3c824769	0.015903192
157	0xbde57b2e	-0.11205135
158	0xbe1b853e	-0.15187547
159	0xbe326cdc	-0.17424339
160	0xbddae4ad	-0.10688148
161	0x3d724964	0.059152022
162	0x3d60018d	0.05468898
163	0xbd23f12e	-0.04002493
164	0xbc912f1a	-0.017722655
165	0x3d2e92cc	0.042620465
166	0xbd92003e	-0.071289524
167	0xbdaa9340	-0.08328867
168	0xbdfb6730	-0.12275541
169	0x3dccfbb7	0.10008948
170	0xbcc0b64e	-0.02352443
171	0xbc81cfb9	-0.01584612
172	0xbda59eb8	-0.08086914
173	0x3ca8f64f	0.020625262
174	0xbd6de319	-0.058077905
175	0x3c133497	0.008984706
176	0x3e8d2760	0.27569103
177	0x3d2603cd	0.04053097
178	0xbda36e78	-0.079800546
179	0x3d50440d	0.05084615
180	0xbe06e2a8	-0.131724
181	0xbdff9805	-0.12480167
182	0xbd12b418	-0.035816282
183	0x3d4d3036	0.050094806
184	0xbe592a61	-0.21207573
185	0xbdf6f917	-0.12059229
186	0xbe0de3f3	-0.13856487
187	0x3d975974	0.07390109
188	0x3d963041	0.073334225
189	0xbdb0127d	-0.08597276
190	0xbd2fd6b1	-0.042929355
191	0xbe22d542	-0.15901664
192	0x3d4f9383	0.050677788
193	0xbc38aaf3	-0.011271226
194	0x3c9a85ac	0.018862568
195	0xbe43f663	-0.19136958
196	0xbe011947	-0.12607299
197	0xbcc40911	-0.023930104
198	0xbc0cbd40	-0.008590043
199	0xbde83147	-0.11337524
200	0xbdcdd48b	-0.10050305
201	0x3e095d3b	0.13414471
202	0x3ce9b43f	0.02852833
203	0x3eb0894f	0.34479758
204	0x3e517b41	0.20457174
205	0x3e143002	0.14471439
206	0x3e598d94	0.21245414
207	0xbcd120dd	-0.025528366
208	0x3d0a9187	0.033830192
209	0x3e7abe37	0.24486624
210	0x3ca5f1ed	0.02025696
211	0xbb8df99d	-0.0043327347
212	0xbcabd3b9	-0.02097498
213	0xbce71685	-0.02820898
214	0x3dc79200	0.09744644
215	0x3d4e2184	0.05032493
216	0x3d5b5b41	0.053553823
217	0xbd92a295	-0.07159916
218	0x3bca40b8	0.006172266
219	0xbc5a4c1f	-0.013323813
220	0xbdaf1479	-0.08548827
221	0xbc698481	-0.014252783
222	0x3de47699	0.11155433
223	0x3e608fac	0.21929806
224	0x3e5a6003	0.21325688
225	0x3e309887	0.17245685
226	0x3df65bfe	0.12029265
227	0x3eb97bcd	0.36227265
228	0xbd2e4f41	-0.04255605
229	0x3de222be	0.11041783
230	0x3dd7452f	0.105112426
231	0xbd982791	-0.07429422
232	0xbdea1150	-0.11429083
233	0x3e6c05b8	0.23049057
234	0x3d9fc62e	0.07801472
235	0xbd8f8c0e	-0.07009135
236	0xbb936c5b	-0.004499001
237	0xbdb9ec7a	-0.090783074
238	0x3e00e9ad	0.1258914
239	0x3bcb271d	0.006199731
240	0x3d8afd18	0.06786555
241	0xbdca7f56	-0.09887569
242	0x3dbe6d28	0.09298164
243	0xbe4c010f	-0.19922279
244	0x3d18638e	0.037204318
245	0xbe2c2cc2	-0.16813949
246	0xbdd85c3f	-0.105644695
247	0x3d198fd8	0.037490696
248	0x3dd5cf41	0.10439921
249	0x3dbb9c13	0.09160628
250	0x3e392c5e	0.18083331
251	0xbd052a45	-0.032511014
252	0x3d68a1a1	0.056794766
253	0xbe82a607	-0.25517294
254	0xbe86238b	-0.26198992
255	0x3cf7e1cc	0.030259036

conv3.bias f4 [32]
0	0xbcd6ba41	-0.02621186
1	0x3ebfd799	0.37469175
2	0xbe0554f7	-0.13020693
3	0xbe5f0501	-0.21779253
4	0xbefd6772	-0.49492985
5	0x3f0ce251	0.5503283
6	0x3ecfc8e7	0.40582964
7	0x3e72dfa8	0.2371813
8	0xbe3b55f1	-0.18294503
9	0xbe2209a3	-0.15823989
10	0x3a0df2f1	0.0005414924
11	0x3d8db7a7	0.069197945
12	0xbdaae106	-0.08343701
13	0x3d9188e7	0.0710619
14	0x3f0a46a5	0.54014045
15	0x3ef0be66	0.47020262
16	0x3e13e7ab	0.14443843
17	0xbd5e5f0f	-0.054289874
18	0xbc9bd851	-0.019024046
19	0x3eac91c2	0.33704954
20	0xbe924f3a	-0.2857607
21	0x3eb96dee	0.36216682
22	0xbdb61de2	-0.088924184
23	0x3d246046	0.040130876
24	0xbd6d5e6e	-0.057951383
25	0x3f0edd7d	0.55806714
26	0xbe7fbf0a	-0.2497522
27	0x3d0feb7f	0.035136696
28	0xbdf0a51a	-0.117502406
29	0xbe3c0321	-0.18360569
30	0xbeb3ce7a	-0.35118467
31	0x3dec60a8	0.11541873

fc1.weight f4 [120, 32]
0	0xbdcb4a49	-0.09926278
1	0xbe068130	-0.13135219
2	0x3e268bcc	0.16264266
3	0xbcde0d3f	-0.027105926
4	0xbde10716	-0.1098768
5	0x3dd48f6e	0.103789195
6	0xbdb3ec21	-0.087852724
7	0xb9afd17a	-0.00033534673
8	0xbe8f4d3c	-0.27988613
9	0x3dec6faf	0.115447395
10	0xbd1c8df7	-0.038221326
11	0xbdbab99d	-0.09117434
12	0xbe9e2a8e	-0.30891842
13	0x3c918ddb	0.017767837
14	0xbc849a3e	-0.01618683
15	0xbe4b60fe	-0.19861218
16	0x3e88a871	0.2669101
17	0xbe60c647	-0.21950637
18	0xbe07da4f	-0.13266872
19	0xbe3a1d70	-0.18175292
20	0xbaff0651	-0.0019456838
21	0xbe0dcce4	-0.13847691
22	0xbad4914d	-0.0016217619
23	0x3bcf60b9	0.006328669
24	0x3eb77f5d	0.35839358
25	0xbe97150f	-0.29508254
26	0xbc91cebb	-0.017798772
27	0x3e20f55d	0.15718599
28	0xbe314abb	-0.17313664
29	0xbdfc8146	-0.123293445
30	0xbe85c09c	-0.26123512
31	0xbdbe2660	-0.09284663
32	0xbb6085d5	-0.0034259458
33	0xbd8e396c	-0.06944546
34	0xbc9deb79	-0.019277321
35	0xbdbc6169	-0.09198267
36	0x3d9f19ed	0.07768617
37	0xbe30714c	-0.1723072
38	0x3d105424	0.035236493
39	0xbe32813f	-0.17432116
40	0x3dfb23ef	0.12262713
41	0xbd8aacbe	-0.06771229
42	0xbddbd9e6	-0.1073492
43	0xbd7a3f44	-0.06109549
44	0xbe0eadd4	-0.13933498
45	0xbe096220	-0.13416338
46	0xbe0dd9c5	-0.13852604
47	0xbc855ff3	-0.016281104
48	0x3cb0d5a0	0.02158624
49	0x3dd7e7cb	0.10542258
50	0xbdc318f2	-0.09526242
51	0xbc2fa9d0	-0.010721639
52	0xbe14bb02	-0.14524463
53	0x3d507dc3	0.050901186
54	0xbd133927	-0.035943177
55	0xbcc01c05	-0.02345086
56	0xbcadb7e6	-0.021205854
57	0xbc85b58e	-0.016321924
58	0x3de08346	0.109625384
59	0xbdb44185	-0.08801559
60	0xbb5a0c2c	-0.0033271415
61	0xbde4d75e	-0.111738905
62	0xbe2e7526	-0.17036876
63	0xbc24dea6	-0.010062849
64	0x3d59037a	0.05298183
65	0xbe68bf44	-0.22729212
66	0xbdccba49	-0.099964686
67	0xbe505cfa	-0.20347968
68	0x3e9734fd	0.29532614
69	0xbe67e9cd	-0.22647782
70	0xbe0346a9	-0.12819923
71	0x3e1623db	0.14662115
72	0xbe13e7e1	-0.14443924
73	0xbe575d0d	-0.2103159
74	0xbe3bdccc	-0.18345946
75	0xbe071632	-0.1319206
76	0xbdda5ec4	-0.10662606
77	0x3deae505	0.11469463
78	0xbda57433	-0.08078804
79	0xbe210aee	-0.15726826
80	0xbd7dd68f	-0.061972197
81	0xbe9dfa65	-0.30855098
82	0xbe001d0b	-0.12511079
83	0x3e163463	0.14668421
84	0xbd2222f2	-0.039584108
85	0x3da0cc30	0.07851446
86	0x3e0e4408	0.1389314
87	0xbe2f1cbf	-0.1710081
88	0xbe82ea49	-0.2556937
89	0x3e800d9c	0.25010383
90	0xbdb4f2bb	-0.0883536
91	0x3c92043f	0.01782429
92	0xbe56851b	-0.20949213
93	0x3c9b85cd	0.0189847
94	0xbd9e2308	-0.077215254
95	0x3cbd4221	0.023102822
96	0xbe5d92b6	-0.21637997
97	0xbce68ef9	-0.028144347
98	0x3d0fdb5c	0.035121307
99	0xbe12192e	-0.14267418
100	0xbe1bf238	-0.15229118
101	0xbd21573a	-0.039389826
102	0x3a801470	0.0009771716
103	0xbe1e4d1a	-0.154591
104	0xbe3e6a38	-0.18595207
105	0xbcc8a67e	-0.024493452
106	0xbe2c7de7	-0.16844903
107	0xbe2bb9f9	-0.16770162
108	0xbda62236	-0.08111994
109	0xbcafffb8	-0.02148424
110	0x3c4a383f	0.012342512
111	0xbe2a206d	-0.16613932
112	0x3dc07c72	0.09398736
113	0xbe0ef8ed	-0.13962145
114	0x3da238c3	0.07920983
115	0xbe499bef	-0.1968839
116	0x3d344f3f	0.044020887
117	0xbc000839	-0.00781446
118	0xbdf9823c	-0.12183043
119	0xbe10b365	-0.14130934
120	0xbe31ecac	-0.1737544
121	0x3e056b11	0.13029124
122	0xbcbffc9d	-0.023435885
123	0x3d9a0507	0.0752049
124	0x3dd9fe87	0.1064425
125	0xbd641c3d	-0.055690993
126	0x3e36b124	0.17841011
127	0xbdd6074f	-0.10450613
128	0x3c67ce7d	0.014148352
129	0xbd29f44b	-0.04149274
130	0x3e9c8e36	0.30577248
131	0x3d477876	0.048698865
132	0x3ccccd43	0.02500022
133	0xbd81ae73	-0.06332102
134	0x3e23e7f4	0.16006452
135	0x3d0ede2a	0.03487984
136	0xbe35a777	-0.17739664
137	0xbd884e00	-0.06655502
138	0x3deeef94	0.1166679
139	0x3e023483	0.12715344
140	0xbc9d3420	-0.019189894
141	0xbe0153e3	-0.12629656
142	0xbdd7fa11	-0.10545743
143	0xbe55249f	-0.20814751
144	0x3de38af7	0.1111049
145	0xbda992f8	-0.08279985
146	0xbe046d6e	-0.12932369
147	0xbe11ac9a	-0.14225999
148	0x3e4309e9	0.19046749
149	0xbe628cfb	-0.22124092
150	0xbe65f310	-0.22456002
151	0xbd877a79	-0.06615157
152	0x3eb02674	0.34404337
153	0xbd97e346	-0.07416396
154	0xbde8cbdd	-0.11367009
155	0x3dff997c	0.12480447
156	0xbe0c49a2	-0.13699964
157	0xbe7b5993	-0.24545889
158	0xbea0eefd	-0.31432334
159	0xbe88db87	-0.26729986
160	0xbea79f65	-0.32738796
161	0x3be0711a	0.0068494203
162	0x3c9688e5	0.018375823
163	0x3d3f0010	0.04663092
164	0x3b70bfea	0.0036735483
165	0xbcb079da	-0.021542478
166	0x3dc70796	0.09718244
167	0xbe736a45	-0.23771007
168	0xbe8ebf60	-0.27880383
169	0xbd966efe	-0.07345389
170	0xbe17ba90	-0.14817262
171	0x3db8ad72	0.09017457
172	0xbcbb2933	-0.022846794
173	0xbe32b755	-0.17452748
174	0x3dca008e	0.09863387
175	0x3dd141d1	0.102176316
176	0xbeb88dff	-0.36045834
177	0xbd6b6e8d	-0.057478476
178	0x3e152842	0.14566138
179	0x3e61182a	0.21981874
180	0x3d9300a1	0.07177854
181	0xbe51e465	-0.20497282
182	0x3d6026a4	0.05472435
183	0x3e91aefb	0.28453812
184	0xbe9ecde7	-0.31016466
185	0xbe9f1a95	-0.31074968
186	0x3da78a62	0.08180691
187	0xbd874669	-0.066052265
188	0x3d7cd9b2	0.061731048
189	0xbcb3572e	-0.021892156
190	0xbe288bad	-0.16459532
191	0x3e2b6044	0.16735941
192	0x3d04deee	0.032439165
193	0xbe3ea818	-0.1861881
194	0xbce7f431	-0.028314682
195	0x3dad1e48	0.08453041
196	0x3de08b2c	0.10964045
197	0x3e41cf9e	0.18926856
198	0x3d2c9233	0.042131614
199	0x3dc5b0d4	0.09652868
200	0xbe62e927	-0.22159253
201	0xbe52d74b	-0.2058994
202	0xbe411fc3	-0.18859772
203	0x3d991bc6	0.074760005
204	0xbe662d89	-0.22478308
205	0xbdf664a3	-0.12030914
206	0x3d4c5857	0.049888935
207	0xbe4af331	-0.19819333
208	0xbe58debf	-0.21178721
209	0x3c8ee53e	0.017443296
210	0xbe02e15b	-0.12781279
211	0xbe037ce7	-0.12840615
212	0x3b890e23	0.0041825934
213	0xbd837236	-0.064182684
214	0xbe8a4f6f	-0.27013728
215	0x3e4c2372	0.19935396
216	0xbdfefb6c	-0.12450299
217	0xbdb7f586	-0.08982377
218	0x3d14b4b3	0.03630514
219	0xbd37e0c2	-0.04489208
220	0x3e2acf52	0.16680649
221	0xbe821ea2	-0.25413996
222	0xbe8eef03	-0.27916726
223	0xbd8a8ae2	-0.06764771
224	0xbdf45a5b	-0.119312964
225	0xbd7411e0	-0.05958736
226	0x3da56064	0.08075026
227	0xbcdfa8a9	-0.027302103
228	0x3e39841e	0.18116805
229	0xbd6b4bc1	-0.05744529
230	0xbde3cbfc	-0.11122891
231	0x3c9ffb81	0.019529106
232	0xbe0f90e3	-0.14020114
233	0x3daff098	0.085908115
234	0xbde811b7	-0.11331504
235	0xbda56905	-0.080766715
236	0xbda27391	-0.07932199
237	0x3a87c8a5	0.0010359479
238	0xbcc47d0c	-0.023985408
239	0xbe3354ac	-0.17512769
240	0xbd8d8fc3	-0.06912186
241	0xbe181589	-0.14851965
242	0x3bbce9ed	0.005765191
243	0x3e9db114	0.30799162
244	0xbe437c1d	-0.19090314
245	0xbe5d1c88	-0.21592915
246	0xbe1025bd	-0.14076896
247	0xbd30dec3	-0.043181192
248	0xbdd0dc69	-0.1019829
249	0xbe180799	-0.14846648
250	0x3d5f4b9b	0.054515462
251	0x3e179b87	0.14805423
252	0xbe81266c	-0.25224626
253	0xbce78e12	-0.028265987
254	0x3e3f9c8b	0.1871206
255	0x3e9eaa48	0.3098929

fc1.bias f4 [120]
0	0x3e899220	0.26869297
1	0xbda6fcd4	-0.08153692
2	0x3e015b65	0.1263252
3	0x3c9512e0	0.018197477
4	0x3b846b4c	0.004041111
5	0xbe7a989e	-0.24472281
6	0x3eeaccc0	0.45859337
7	0xbe7fb060	-0.24969625
8	0x3d84472e	0.06458889
9	0x3f25c3b3	0.6475174
10	0x3ea8481e	0.3286752
11	0x3e072fd8	0.13201845
12	0xbea50e6a	-0.3223756
13	0xbd7ff495	-0.06248911
14	0x3eef6284	0.4675485
15	0x3e7b68cd	0.24551697
16	0xbdb92c96	-0.09041707
17	0x3d8f640e	0.07001506
18	0x3ed04424	0.40676987
19	0xbd135213	-0.035966944
20	0x3d9c36c9	0.07627637
21	0xbc2e7a0d	-0.010649216
22	0xbe62fbe3	-0.221664
23	0xbe4444f4	-0.19166929
24	0xbddad776	-0.10685627
25	0xbe74a3a0	-0.23890543
26	0x3f1a4a10	0.6026926
27	0x3dd2ab26	0.1028655
28	0xbde0bcb6	-0.10973494
29	0x3ed66bdb	0.41879162
30	0xbdaa9ba1	-0.08330465
31	0x3e85cd36	0.26133126
32	0xbd156b6e	-0.036479406
33	0xbee88f49	-0.45421818
34	0x3e340285	0.17579086
35	0x3e7ee030	0.24890208
36	0xbe0e069a	-0.13869706
37	0xbdcdee5e	-0.100552306
38	0x3edb30e7	0.42810747
39	0x3ee4194c	0.4455055
40	0x3d60ebfc	0.054912552
41	0x3ea2d794	0.31805098
42	0x3e6d5d14	0.23180038
43	0x3bc5c963	0.00603597
44	0x3c95535d	0.018228227
45	0x3f375e44	0.7162821
46	0x3e0a8102	0.13525775
47	0xbe409717	-0.18807636
48	0xbd913b75	-0.07091419
49	0x3e41477b	0.18874924
50	0xbe75c798	-0.2400192
51	0x3de7a65a	0.11311026
52	0x3d0d81ed	0.034547735
53	0x3dcf41ca	0.1011997
54	0xbba75511	-0.0051065763
55	0xbe0328eb	-0.12808578
56	0x3bcc1030	0.0062275156
57	0x3ecaeb2f	0.39632556
58	0x3e43ebb8	0.19132888
59	0xbdf2c964	-0.118548185
60	0xbe6f709c	-0.23382801
61	0x3d02591d	0.031823266
62	0x3e2a52a0	0.16633081
63	0xbeae89dc	-0.34089553
64	0x3d94bf11	0.072630055
65	0x3e7ed3db	0.24885504
66	0x3c1b485c	0.009477701
67	0x3efb6f01	0.49108127
68	0x3e785499	0.24251021
69	0xbdaac768	-0.08338815
70	0x3c8e680d	0.0173836
71	0x3e4f3f56	0.20239004
72	0x3c580965	0.013185834
73	0x3eec05f2	0.46098286
74	0xbe6e43cf	-0.23268054
75	0x3e4ace74	0.19805318
76	0xbe29f24d	-0.16596337
77	0x3d71f671	0.059072915
78	0xbcfd4bad	-0.030919874
79	0xbe3a869c	-0.18215412
80	0x3d11b8ec	0.035576746
81	0xbe5425c0	-0.20717525
82	0x3d2bb4ad	0.041920353
83	0xbe48188c	-0.19540614
84	0xbedce939	-0.43146685
85	0xbcefeb38	-0.029286966
86	0xbeec0d60	-0.46103954
87	0x3e11bef3	0.14232998
88	0x3ce93406	0.02846719
89	0xbedb60c7	-0.42847273
90	0xbe3f0227	-0.18653165
91	0xbc49a762	-0.012307974
92	0xbea0ca47	-0.31404325
93	0xbe25fa7f	-0.16208838
94	0x3e1cc7a3	0.1531053
95	0xbe42f42e	-0.1903846
96	0xbe752453	-0.23939638
97	0x3f1edc2f	0.62054724
98	0x3edcbddc	0.431136
99	0x3eed881f	0.46392915
100	0xbd7f33d4	-0.062305287
101	0x3ebc1cb4	0.3674065
102	0xbe167fec	-0.14697236
103	0xbcc6fec6	-0.024291407
104	0xbde3c54e	-0.11121617
105	0x3e8fa704	0.2805711
106	0xbd3924ec	-0.045201227
107	0xbe055c21	-0.13023426
108	0x3ea7707d	0.3270301
109	0x3c4ef8dc	0.012632575
110	0xbd69fb9e	-0.057124726
111	0x3d8977d3	0.06712308
112	0xbe564666	-0.20925292
113	0xbdaa1aae	-0.0830587
114	0xbe646755	-0.22305043
115	0xbdfa36db	-0.12217494
116	0x3eebad9a	0.46030885
117	0xbe553a0c	-0.20822924
118	0xbdbc381a	-0.09190388
119	0xbe552809	-0.20816053

fc2.weight f4 [84, 120]
0	0xbdbc5c03	-0.09197237
1	0x3d879d36	0.066217825
2	0x3cf4a59c	0.029864125
3	0x3da09cbe	0.07842396
4	0xbcca676c	-0.024707519
5	0x3d5602c9	0.05224875
6	0x3adf92c4	0.0017057289
7	0x3da64efa	0.08120532
8	0x3df578f1	0.11985958
9	0xbdee1a5b	-0.11626121
10	0x3dd2ef45	0.10299543
11	0xbd67d8b7	-0.05660316
12	0x3d85ed9d	0.06539462
13	0x3c8685eb	0.016421279
14	0xbdbeaabb	-0.09309908
15	0xbdf5ac5a	-0.11995764
16	0xbdd88582	-0.105723396
17	0x3c853720	0.016261637
18	0xbe06bef3	-0.13158779
19	0x3e31ae30	0.17351604
20	0xbd95ee41	-0.07320834
21	0xbd8fcbe6	-0.070213124
22	0x3dd328d8	0.10310525
23	0xbcfebbef	-0.031095473
24	0x3dcf2251	0.10113967
25	0xbe231fe1	-0.1593013
26	0xbdf4c905	-0.11952404
27	0xbdbb3852	-0.091416016
28	0xbd99bd84	-0.0750685
29	0x3e11d340	0.14240742
30	0xbd11a9fe	-0.035562508
31	0xbc913d21	-0.017729344
32	0xbdec8b10	-0.115499616
33	0xbd42df97	-0.047576513
34	0xbc778caa	-0.0151092205
35	0xbe08b9df	-0.13352154
36	0xbc86de36	-0.01646338
37	0xbc04b687	-0.008100159
38	0xbd8b5f46	-0.06805281
39	0x3d205a5a	0.039148666
40	0x3c407b8d	0.011748207
41	0x3d1d7283	0.038439285
42	0x3dd1726f	0.102269046
43	0xbdb08fce	-0.086211786
44	0xbaf418d5	-0.0018623123
45	0x3ddc8128	0.10766822
46	0x3d484f56	0.048903786
47	0x3d062ab6	0.032755576
48	0x3cb06f6a	0.021537501
49	0xbdcd972e	-0.10038601
50	0xbcaabad6	-0.020841043
51	0xbd6e543a	-0.058185793
52	0xbc727aa2	-0.014799746
53	0xbd806252	-0.06268753
54	0xbdbfa02e	-0.09356724
55	0xbd9868fd	-0.074419
56	0x3daade94	0.08343235
57	0x3cabbd41	0.020964267
58	0xbdbcf7d4	-0.09226957
59	0xbbf744a6	-0.0075460253
60	0x3d7ae6f2	0.061255403
61	0x3bee6a01	0.0072758202
62	0xbd7546ad	-0.059881855
63	0xbe3bb0e8	-0.18329203
64	0xbe4dcc32	-0.20097426
65	0x3cea6e14	0.028616942
66	0xbcd01912	-0.02540258
67	0x3da040f6	0.0782489
68	0xbda10c3f	-0.07863664
69	0x3c56f77e	0.01312053
70	0xbe200e1a	-0.1563038
71	0xbdc4ed31	-0.09615553
72	0xbca10bf8	-0.019659027
73	0xbcce7663	-0.025202936
74	0x3e291d07	0.1651498
75	0x3caf8b92	0.021428857
76	0x3c61ca09	0.013781079
77	0xbc443c42	-0.011977257
78	0xbdaf875b	-0.08570739
79	0xbc920d0a	-0.017828483
80	0xbd5835fb	-0.052785855
81	0x3e38e6d8	0.1805681
82	0xbddb5221	-0.10709024
83	0xbe0f2188	-0.13977635
84	0x3db3a42a	0.08771546
85	0xbbac5279	-0.005258855
86	0x3d905a48	0.0704847
87	0xbd972505	-0.07380108
88	0xbc2811a2	-0.01025811
89	0x3d2a7de7	0.041623976
90	0xbd007d94	-0.03136976
91	0x3d1151a1	0.035478238
92	0xbdf41dbc	-0.11919734
93	0x3d8141dc	0.0631139
94	0xbbd51db0	-0.006503783
95	0x3de435e5	0.11143092
96	0x3df22693	0.11823764
97	0xbc18da4b	-0.009329389
98	0xbdb0dbf1	-0.086357005
99	0xbd31d0c0	-0.04341197
100	0xbcb22888	-0.021747842
101	0xbd2298ee	-0.039696626
102	0x3bf67664	0.0075214375
103	0xbd17bdcf	-0.03704625
104	0xbd64fad1	-0.05590326
105	0xbd9d0d12	-0.076685086
106	0x3b3183e2	0.0027086665
107	0xbc072011	-0.008247391
108	0xbe3bad0d	-0.18327732
109	0x3da62adf	0.08113646
110	0xbb66f072	-0.0035238531
111	0x3c213eef	0.009841665
112	0x3c09c728	0.008409299
113	0x3ca4835d	0.02008217
114	0x3e148c32	0.14506605
115	0xbda3c801	-0.07997132
116	0x3c15754b	0.009122203
117	0x3db00e81	0.085965164
118	0xbda8efa3	-0.08248832
119	0xbd937fd6	-0.07202117
120	0xbd9179b0	-0.07103288
121	0x3d98ef62	0.07467534
122	0xba95c50b	-0.0011426521
123	0x3d8ec8b0	0.06971872
124	0xbdde79c9	-0.108630724
125	0xbe1f59fd	-0.15561672
126	0x3e266a52	0.16251495
127	0xbdd2d6a9	-0.102948494
128	0xbc1c9432	-0.009556817
129	0x3cecd8e0	0.028912008
130	0xbc8162f4	-0.015794255
131	0xbdfe20ac	-0.124085754
132	0xbbc81f5c	-0.006107254
133	0x3e23c955	0.15994771
134	0xbdcf6c59	-0.101280876
135	0x3d8ccc07	0.06874853
136	0xbcc25278	-0.023720965
137	0x3dd312e8	0.103063405
138	0xbe0e9f32	-0.13927916
139	0x3dba0046	0.090820834
140	0x3cd63801	0.026149752
141	0x3cae91ea	0.021309812
142	0xbe80e999	-0.2517822
143	0xbdf9d5f6	-0.12199013
144	0x3d63dbee	0.055629663
145	0xbd0fcb22	-0.035105832
146	0xbd065620	-0.03279698
147	0xbca60e36	-0.020270448
148	0xbe49e013	-0.19714384
149	0xbd748239	-0.059694503
150	0xbd025ddc	-0.031827793
151	0x3ddbcb3a	0.10732122
152	0x3d994c55	0.07485262
153	0xbe5b8c45	-0.21440227
154	0xbcce9b2f	-0.025220482
155	0x3daba9d1	0.08381999
156	0xbc1b8497	-0.009492061
157	0xbe0c87d8	-0.13723695
158	0x3d89b9e8	0.06724912
159	0xbd0582c5	-0.032595415
160	0xbe4ae8f1	-0.19815423
161	0xbbb54436	-0.005531813
162	0xbd805c50	-0.06267607
163	0x3cb210b3	0.021736478
164	0xbd4be630	-0.04978007
165	0x3e029dab	0.12755458
166	0x3ca29398	0.019845769
167	0xba803e8f	-0.0009784269
168	0xbc853ef4	-0.01626537
169	0x3d9e20ac	0.077210754
170	0xbcec9e10	-0.028883964
171	0xbe05981c	-0.13046306
172	0xbd84b6cf	-0.064801805
173	0xbc7f94fc	-0.0155994855
174	0xbe0c3452	-0.13691834
175	0xbdba59be	-0.09099148
176	0xbc5fd6ce	-0.013662053
177	0x3d2d4fc7	0.04231241
178	0xbcee8e91	-0.029120715
179	0xbdb352d3	-0.08756032
180	0x3baa3487	0.00519425
181	0x3e1d0311	0.15333201
182	0x3dfc5f53	0.12322869
183	0x3c232de8	0.009959675
184	0xbe0a2c90	-0.13493562
185	0x3e052f68	0.13006365
186	0x3bcdae6b	0.0062768958
187	0x3dc036b1	0.093854316
188	0x3c5a6c56	0.013331493
189	0x3e5f26f3	0.21792202
190	0xbddd542e	-0.108070716
191	0xbd675e0f	-0.056486186
192	0xbd4141e2	-0.04718197
193	0xbe64b62f	-0.22335123
194	0xbb82457a	-0.0039755674
195	0x3d977bc6	0.07396655
196	0xbc3396a6	-0.01096121
197	0x3c4424e3	0.011971685
198	0xbdae1c22	-0.0850146
199	0xbe0c62a8	-0.1370951
200	0x3d8325eb	0.06403717
201	0xbd8cc16e	-0.06872831
202	0xbd209103	-0.039200794
203	0xbda3c314	-0.079961926
204	0x3d55207c	0.052032933
205	0xbd25b4ff	-0.040455814
206	0xbba17210	-0.0049269274
207	0x3e06e74e	0.13174173
208	0x3cc9bce8	0.02462621
209	0xbdf327e5	-0.11872844
210	0x3e1129b5	0.14176066
211	0x3b4b5842	0.0031027948
212	0xbde8ce97	-0.11367529
213	0x3bec6ecd	0.007215357
214	0x3d93bd84	0.072138816
215	0xbd984f1e	-0.074369654
216	0xbd4cfb16	-0.05004414
217	0x3d059a76	0.03261801
218	0x3e34fd90	0.17674851
219	0x3d07af59	0.03312621
220	0xbd0f9f76	-0.035064183
221	0xbc27c9d5	-0.010240992
222	0xbc096180	-0.008385062
223	0xbd6bdf4d	-0.057586003
224	0x3d48f395	0.049060423
225	0xbd5b388a	-0.053520717
226	0xbb215882	-0.0024619405
227	0xbe08d6c1	-0.13363172
228	0xbdf2fdce	-0.11864816
229	0xbc493142	-0.01227981
230	0x3de77d99	0.11303253
231	0x3e3a8be1	0.18217422
232	0xbc7a8d79	-0.015292519
233	0xbd2f9df7	-0.042875256
234	0xbda5a9d4	-0.08089033
235	0x3da6a3f6	0.08136742
236	0xbe3b4622	-0.18288472
237	0xbd54d489	-0.0519605
238	0xbd916747	-0.07099777
239	0xbd97a3ca	-0.07404287
240	0xbdf9a476	-0.121895716
241	0xbd4b3fe6	-0.049621485
242	0x3d1c008a	0.03808645
243	0x3b93ca4d	0.0045102
244	0xbdc36fed	-0.095428325
245	0xbd21d3ba	-0.03950856
246	0x3cea38b4	0.028591491
247	0xbd19d9d2	-0.037561245
248	0x3e801ab8	0.25020385
249	0x3cf571b0	0.029961437
250	0x3d12fec3	0.03588749
251	0x3dbdfb42	0.09276439
252	0x3d52ec78	0.051495045
253	0x3dcfc4be	0.101449475
254	0xbe016e22	-0.12639669
255	0xbde3797d	-0.111071564

fc2.bias f4 [84]
0	0xbd744940	-0.05964017
1	0x3f082dc6	0.53194845
2	0x3e85c7c4	0.26128972
3	0x3ef0648d	0.46951714
4	0x3f6aabb5	0.91668254
5	0x3e1e065d	0.15432115
6	0x3eca715e	0.39539617
7	0xbdaf7745	-0.08567671
8	0x3efbdf50	0.4919381
9	0x3f4e836b	0.8066928
10	0x3f1ba2ab	0.60795087
11	0x3e3831f5	0.17987807
12	0x3f086f21	0.5329457
13	0x3ee7b559	0.45255545
14	0xbdbc093e	-0.0918145
15	0x3e649049	0.22320665
16	0x3f000255	0.5000356
17	0x3d806f08	0.062711775
18	0x3d640054	0.055664375
19	0xbd96e0ad	-0.07367072
20	0x3e4f22b1	0.20228077
21	0x3e2f81d2	0.17139366
22	0x3ed5234b	0.4162849
23	0x3dfe1685	0.12406639
24	0x3e616785	0.22012146
25	0x3df4a7bc	0.11946055
26	0xbda89014	-0.08230606
27	0xbca1d33b	-0.019754043
28	0x3e4cc9a7	0.199988
29	0x3ed8c45f	0.4233732
30	0x3e6abb8c	0.22923106
31	0x3e9ce993	0.30646953
32	0x3e6200d7	0.22070633
33	0xbd213c4a	-0.039364137
34	0x3de54f36	0.11196749
35	0x3de67d47	0.112543635
36	0x3e24f599	0.16109313
37	0x3dd3648d	0.10321913
38	0x3d67daac	0.056605026
39	0x3ea57b01	0.32320407
40	0xbcb1f424	-0.02172286
41	0xbd954ab2	-0.072896376
42	0x3e210281	0.15723611
43	0xbdc2acc7	-0.09505611
44	0x3f27fdd5	0.6562169
45	0xbce3ddb9	-0.027815687
46	0x3edea5e8	0.4348595
47	0x3d36e6e2	0.04465378
48	0x3d5ccdbf	0.053907152
49	0xbcb374c5	-0.021906266
50	0x3ee0bbb7	0.43893215
51	0x3f28ff23	0.6601431
52	0x3e0b17d8	0.13583314
53	0x3e4db304	0.2008782
54	0x3f096c6b	0.5368106
55	0x3dd75923	0.10515048
56	0x3ee2b7b9	0.44280794
57	0x3e5a0e26	0.2129446
58	0x3ebc086d	0.36725178
59	0xbcb1d676	-0.021708708
60	0x3ec77b09	0.38961056
61	0xbd02f6c7	-0.031973626
62	0xbdbc7bf2	-0.09203328
63	0x3ef52891	0.47882512
64	0x3d5c787b	0.053825837
65	0xbb459006	-0.003014566
66	0xbe235786	-0.15951356
67	0x3d9f4a9d	0.07777903
68	0x3d8e582b	0.069504105
69	0xbd93b326	-0.07211904
70	0x3b34fc33	0.0027616143
71	0x3ec8a7f6	0.39190644
72	0xbe14e861	-0.1454177
73	0xbda44730	-0.080213904
74	0x3e175378	0.14777935
75	0x3f01e67a	0.50742304
76	0x3e9739ea	0.29536372
77	0x3e81b0f2	0.2533031
78	0x3e74dc38	0.23912132
79	0x3de3dc5c	0.111260146
80	0x3dbbf7c1	0.09178115
81	0x3cb33610	0.021876365
82	0xbb71cf91	-0.00368974
83	0x3d9e99c0	0.07744169

fc3.weight f4 [10, 84]
0	0x3df39632	0.11893882
1	0xbe2719f7	-0.16318499
2	0xbd764c8b	-0.06013159
3	0xbea653ce	-0.32485813
4	0xbead874a	-0.3389228
5	0x3e5e4938	0.21707618
6	0x3b96f20b	0.0046064905
7	0x3dcd572b	0.100263916
8	0xbdb3ac90	-0.08773148
9	0x3d847eb6	0.06469481
10	0x3dd48092	0.10376085
11	0xbe32d231	-0.17462994
12	0xbe33a48e	-0.17543241
13	0x3caf0223	0.021363324
14	0x3e1602aa	0.14649454
15	0xbd071d68	-0.03298703
16	0x3d67a92a	0.05655781
17	0x3e043b45	0.12913235
18	0x3e7599b1	0.2398441
19	0x3cd99aac	0.026563011
20	0x3e1bfcfe	0.15233228
21	0x3c332a02	0.010935308
22	0xbe569214	-0.20954162
23	0x3d87f09b	0.06637689
24	0x3d13c213	0.036073755
25	0xbe2e7c7a	-0.17039672
26	0x3d07f6a4	0.0331942
27	0xbce5988d	-0.028026843
28	0xbeb2f35d	-0.34951296
29	0x3e8aa5ea	0.27079707
30	0x3e11f5c9	0.14253916
31	0xbe10d112	-0.14142254
32	0xbe91e497	-0.28494713
33	0xbdfae889	-0.12251384
34	0x3e0a92e2	0.13532594
35	0xbd9e6609	-0.077343054
36	0x3ea84453	0.32864627
37	0x3e0d2107	0.1378213
38	0x3e51f078	0.20501888
39	0xbe4edf13	-0.20202284
40	0x3e461c57	0.19346748
41	0xbd955fc6	-0.07293658
42	0x3e566cd0	0.20939946
43	0x3db5d59b	0.08878633
44	0xbea457b7	-0.3209817
45	0xbca3f38c	-0.020013593
46	0x3dca5c3f	0.09880876
47	0x3d874472	0.06604852
48	0x3e160b6a	0.14652792
49	0xbe4bba8b	-0.19895379
50	0x3dc39180	0.09549236
51	0xbec7bca0	-0.39011097
52	0xbca4d381	-0.020120384
53	0x3d55a44c	0.05215864
54	0xbe0ffcb1	-0.14061238
55	0x3db55677	0.088543825
56	0xbe08dd44	-0.13365656
57	0xbd48ab92	-0.048991747
58	0xbe814742	-0.25249678
59	0x3e845c64	0.25851738
60	0xbe57ee85	-0.21087082
61	0xbd057177	-0.03257891
62	0x3d9ffeff	0.078123085
63	0x3d8d740f	0.06906902
64	0x3db26987	0.08711534
65	0xbd6eec31	-0.05833072
66	0x3e23f39e	0.16010901
67	0xbdf85eb9	-0.12127442
68	0x3e6172a8	0.22016394
69	0x3dfccf1e	0.12344192
70	0xbe070f2d	-0.13189383
71	0x3e7e7829	0.24850525
72	0x3e085157	0.13312279
73	0xbbc5f48b	-0.0060411147
74	0x3d28f0da	0.04124532
75	0x3e003c3f	0.12522982
76	0x3e67cf76	0.22637734
77	0xbe72fefd	-0.23730083
78	0x3dc7b59f	0.09751438
79	0xbca08344	-0.019593842
80	0x3d1e8ce6	0.03870859
81	0x3d9672f3	0.073461436
82	0x3e4cb200	0.19989777
83	0xbd387342	-0.045031793
84	0xbca1e2b2	-0.019761417
85	0xbe45a78b	-0.19302194
86	0x3e156c15	0.14592011
87	0xbeac0bf2	-0.33602864
88	0xbd2099c2	-0.039209135
89	0x3c57f053	0.013179856
90	0xbe614421	-0.21998645
91	0xbd12ed02	-0.03587056
92	0xbdb081f4	-0.086185366
93	0xbef8f234	-0.48622286
94	0xbc30334b	-0.010754417
95	0x3db9f602	0.090801254
96	0xbecc2708	-0.39873528
97	0xbe873a19	-0.26411512
98	0xbde67604	-0.112529784
99	0xbe373b9d	-0.17893834
100	0x3d684b0a	0.056712188
101	0xbda00871	-0.0781411
102	0xbbf218e2	-0.00738822
103	0x3ced0836	0.02893458
104	0xbe7c0e60	-0.24614859
105	0xbde1185a	-0.10990973
106	0x3df565ac	0.11982283
107	0x3e8ec563	0.2788497
108	0xbd60696c	-0.054788038
109	0x3e02cd96	0.12773737
110	0xbc02a2bb	-0.007973368
111	0xbd15a1cf	-0.036531266
112	0x3e5decda	0.21672383
113	0xbc9eb7cd	-0.019374752
114	0xbc1a50ec	-0.009418707
115	0xbdee8e01	-0.11648179
116	0xbe2e727a	-0.17035857
117	0x3dbcb2c5	0.09213785
118	0xbd9461fa	-0.0724525
119	0x3c912aa0	0.01772052
120	0x3e9e40e0	0.3090887
121	0x3dbd744d	0.09250698
122	0xbe4a17d6	-0.19735655
123	0x3bde0c61	0.006776378
124	0xbe89af99	-0.26891783
125	0xbbef04d1	-0.0072942753
126	0x3e9aafa2	0.30212122
127	0xbdb91bc8	-0.09038502
128	0xbe2515f5	-0.16121657
129	0x3d9eb4e5	0.07749347
130	0xbccb99ff	-0.024853704
131	0x3df34d53	0.11879983
132	0x3edf5f37	0.4362733
133	0x3dc8124d	0.097691156
134	0xbdde1820	-0.10844445
135	0x3c40b1dd	0.011761156
136	0xbe5028c5	-0.20328052
137	0xbda0291c	-0.07820341
138	0xbeb72968	-0.35773778
139	0x3eb5d1f3	0.3551174
140	0x3dd05bd9	0.101737686
141	0x3d22f1e0	0.03978145
142	0x3cfbd0a0	0.030739129
143	0xbd6dd263	-0.05806197
144	0x3ccf5695	0.02530984
145	0x3c33ae1b	0.010966803
146	0x3e82acb3	0.25522384
147	0xbe4a8351	-0.19776656
148	0x3e002f54	0.12518054
149	0xbccf4ec1	-0.025306107
150	0x3de1b6da	0.11021204
151	0x3ccb6e53	0.02483288
152	0xbca8c3e5	-0.020601222
153	0x3e73e026	0.23815975
154	0x3e508efe	0.20367047
155	0xbe86f512	-0.2635885
156	0x3e0e1fad	0.13879271
157	0x3d8d9ff8	0.06915277
158	0x3e8ddb85	0.27706543
159	0xbe3f2e36	-0.18669972
160	0xbcf37cef	-0.029722659
161	0xbdef9ef7	-0.11700242
162	0xbd7d4324	-0.06183161
163	0xbda069c6	-0.07832675
164	0xbd87a079	-0.066224046
165	0x3e1a4ba3	0.15067916
166	0xbdc9749f	-0.09836697
167	0x3dc61424	0.0967181
168	0x3e33f935	0.17575534
169	0x3e1fdbfb	0.1561126
170	0xbd9b15f6	-0.07572548
171	0x3e8da5cb	0.27665552
172	0x3e60667a	0.21914092
173	0xbd66b9aa	-0.056329407
174	0x3e511c00	0.20420837
175	0x3e0731e7	0.1320263
176	0x3e48c452	0.1960614
177	0x3e2925d3	0.16518335
178	0xbe794f70	-0.24346709
179	0xbdd2bc3c	-0.10289809
180	0x3e97f8d1	0.2968202
181	0x3d38b5bd	0.045095194
182	0x3e0399ee	0.12851688
183	0xbdc59f54	-0.0964953
184	0x3cf387b5	0.029727796
185	0x3e2d5342	0.16926292
186	0xbd785678	-0.060629338
187	0xbe4f9260	-0.20270681
188	0x3da9ce63	0.08291318
189	0xbe1135bf	-0.14180659
190	0x3dee7a40	0.11644411
191	0xbd73487e	-0.059395306
192	0x3dc4bf74	0.09606829
193	0xbd9640b4	-0.0733656
194	0x3cd84d8b	0.026404163
195	0xbcc02fe2	-0.023460332
196	0x3db81a67	0.08989411
197	0x3e0d1fef	0.13781713
198	0x3e3a429a	0.18189469
199	0x3e22923d	0.15876098
200	0x3d3ac1cc	0.045594975
201	0x3cad3fb5	0.021148542
202	0x3e2fc770	0.17165923
203	0x3d245893	0.040123533
204	0xbd39262f	-0.04520243
205	0x3d9836d3	0.07432332
206	0x3e3c4e22	0.1838918
207	0x3c9b15c9	0.018931286
208	0x3e6b53b7	0.22981153
209	0xbd013a18	-0.031549543
210	0x3d81cb93	0.06337657
211	0x3d51e49e	0.051243417
212	0x3e5880b6	0.2114285
213	0xb992903e	-0.0002795476
214	0x3e2f9ba3	0.17149214
215	0x3e4b7450	0.19868588
216	0xbe21d986	-0.15805635
217	0xbc2d74e0	-0.010586947
218	0xbcd6b0fa	-0.026207436
219	0x3e19a7da	0.15005437
220	0x3e39cc8b	0.18144433
221	0xbe121f85	-0.14269836
222	0xbc2f7bdd	-0.010710684
223	0xbca1fef6	-0.019774895
224	0xbe1e2638	-0.15444267
225	0x3e315378	0.17316997
226	0xbe3ab600	-0.1823349
227	0x3e55fc9b	0.20897143
228	0x3e2a183f	0.16610812
229	0xbd17a126	-0.037018918
230	0xbb4e7385	-0.003150196
231	0x3e2d2f4e	0.16912577
232	0xbe040ff6	-0.12896714
233	0xbc1b16d6	-0.009465894
234	0x3b911201	0.004427195
235	0x3e397bea	0.18113676
236	0x3e58fedb	0.2119097
237	0xbeae759e	-0.3407411
238	0x3e2dde70	0.16979384
239	0x3e20167d	0.15633579
240	0x3e47ea07	0.19522868
241	0x3d04a73a	0.032386042
242	0xbe053cd9	-0.13011493
243	0x3df9d719	0.1219923
244	0x3d8909fe	0.06691359
245	0x3c07bc44	0.008284632
246	0xbd3e8eed	-0.046523023
247	0x3d6b3fed	0.05743401
248	0x3c4a4a47	0.012346811
249	0x3d663a9b	0.056208234
250	0xbd81e5b4	-0.063426405
251	0xbd8b0c4e	-0.06789456
252	0xbdbea511	-0.09308828
253	0x3e55473f	0.2082796
254	0x3e18ee81	0.14934732
255	0x3e1a9e2e	0.15099403

fc3.bias f4 [10]
0	0x3d8012bb	0.062535726
1	0xbf5b0e84	-0.85569024
2	0xbe9bdd16	-0.30442113
3	0x3f40edbe	0.75362766
4	0x3f31c93b	0.6944768
5	0x3e79c910	0.24393106
6	0xba2ffb84	-0.0006713199
7	0xbe8d9567	-0.27653047
8	0xbdb9b95d	-0.09068558
9	0xbd8c786f	-0.068589084
